{"class_name": "Model", "keras_version": "2.3.1", "config": {"layers": [{"class_name": "InputLayer", "config": {"dtype": "float32", "batch_input_shape": [null, 192, 192, 3], "name": "input_1", "sparse": false}, "inbound_nodes": [], "name": "input_1"}, {"class_name": "Conv2D", "config": {"kernel_initializer": {"class_name": "VarianceScaling", "config": {"distribution": "uniform", "scale": 1.0, "seed": null, "mode": "fan_avg"}}, "name": "front_conv_1x1_x1", "kernel_constraint": null, "bias_regularizer": null, "bias_constraint": null, "dtype": "float32", "activation": "linear", "trainable": true, "data_format": "channels_last", "filters": 64, "padding": "same", "strides": [2, 2], "dilation_rate": [1, 1], "kernel_regularizer": null, "bias_initializer": {"class_name": "Zeros", "config": {}}, "use_bias": true, "activity_regularizer": null, "kernel_size": [7, 7]}, "inbound_nodes": [[["input_1", 0, 0, {}]]], "name": "front_conv_1x1_x1"}, {"class_name": "LeakyReLU", "config": {"dtype": "float32", "trainable": true, "name": "leaky_re_lu_1", "alpha": 0.10000000149011612}, "inbound_nodes": [[["front_conv_1x1_x1", 0, 0, {}]]], "name": "leaky_re_lu_1"}, {"class_name": "BatchNormalization", "config": {"beta_constraint": null, "gamma_initializer": {"class_name": "Ones", "config": {}}, "moving_mean_initializer": {"class_name": "Zeros", "config": {}}, "name": "batch_normalization_1", "dtype": "float32", "trainable": true, "moving_variance_initializer": {"class_name": "Ones", "config": {}}, "beta_initializer": {"class_name": "Zeros", "config": {}}, "scale": true, "axis": -1, "epsilon": 0.001, "gamma_constraint": null, "gamma_regularizer": null, "beta_regularizer": null, "momentum": 0.99, "center": true}, "inbound_nodes": [[["leaky_re_lu_1", 0, 0, {}]]], "name": "batch_normalization_1"}, {"class_name": "Conv2D", "config": {"kernel_initializer": {"class_name": "VarianceScaling", "config": {"distribution": "uniform", "scale": 1.0, "seed": null, "mode": "fan_avg"}}, "name": "front_residual_x1_conv_1x1_x1", "kernel_constraint": null, "bias_regularizer": null, "bias_constraint": null, "dtype": "float32", "activation": "linear", "trainable": true, "data_format": "channels_last", "filters": 4, "padding": "same", "strides": [1, 1], "dilation_rate": [1, 1], "kernel_regularizer": null, "bias_initializer": {"class_name": "Zeros", "config": {}}, "use_bias": true, "activity_regularizer": null, "kernel_size": [1, 1]}, "inbound_nodes": [[["batch_normalization_1", 0, 0, {}]]], "name": "front_residual_x1_conv_1x1_x1"}, {"class_name": "LeakyReLU", "config": {"dtype": "float32", "trainable": true, "name": "leaky_re_lu_3", "alpha": 0.10000000149011612}, "inbound_nodes": [[["front_residual_x1_conv_1x1_x1", 0, 0, {}]]], "name": "leaky_re_lu_3"}, {"class_name": "BatchNormalization", "config": {"beta_constraint": null, "gamma_initializer": {"class_name": "Ones", "config": {}}, "moving_mean_initializer": {"class_name": "Zeros", "config": {}}, "name": "batch_normalization_2", "dtype": "float32", "trainable": true, "moving_variance_initializer": {"class_name": "Ones", "config": {}}, "beta_initializer": {"class_name": "Zeros", "config": {}}, "scale": true, "axis": -1, "epsilon": 0.001, "gamma_constraint": null, "gamma_regularizer": null, "beta_regularizer": null, "momentum": 0.99, "center": true}, "inbound_nodes": [[["leaky_re_lu_3", 0, 0, {}]]], "name": "batch_normalization_2"}, {"class_name": "Conv2D", "config": {"kernel_initializer": {"class_name": "VarianceScaling", "config": {"distribution": "uniform", "scale": 1.0, "seed": null, "mode": "fan_avg"}}, "name": "front_residual_x1_conv_3x3_x2", "kernel_constraint": null, "bias_regularizer": null, "bias_constraint": null, "dtype": "float32", "activation": "linear", "trainable": true, "data_format": "channels_last", "filters": 4, "padding": "same", "strides": [1, 1], "dilation_rate": [1, 1], "kernel_regularizer": null, "bias_initializer": {"class_name": "Zeros", "config": {}}, "use_bias": true, "activity_regularizer": null, "kernel_size": [3, 3]}, "inbound_nodes": [[["batch_normalization_2", 0, 0, {}]]], "name": "front_residual_x1_conv_3x3_x2"}, {"class_name": "LeakyReLU", "config": {"dtype": "float32", "trainable": true, "name": "leaky_re_lu_4", "alpha": 0.10000000149011612}, "inbound_nodes": [[["front_residual_x1_conv_3x3_x2", 0, 0, {}]]], "name": "leaky_re_lu_4"}, {"class_name": "BatchNormalization", "config": {"beta_constraint": null, "gamma_initializer": {"class_name": "Ones", "config": {}}, "moving_mean_initializer": {"class_name": "Zeros", "config": {}}, "name": "batch_normalization_3", "dtype": "float32", "trainable": true, "moving_variance_initializer": {"class_name": "Ones", "config": {}}, "beta_initializer": {"class_name": "Zeros", "config": {}}, "scale": true, "axis": -1, "epsilon": 0.001, "gamma_constraint": null, "gamma_regularizer": null, "beta_regularizer": null, "momentum": 0.99, "center": true}, "inbound_nodes": [[["leaky_re_lu_4", 0, 0, {}]]], "name": "batch_normalization_3"}, {"class_name": "Conv2D", "config": {"kernel_initializer": {"class_name": "VarianceScaling", "config": {"distribution": "uniform", "scale": 1.0, "seed": null, "mode": "fan_avg"}}, "name": "front_residual_x1_conv_1x1_x3", "kernel_constraint": null, "bias_regularizer": null, "bias_constraint": null, "dtype": "float32", "activation": "linear", "trainable": true, "data_format": "channels_last", "filters": 8, "padding": "same", "strides": [1, 1], "dilation_rate": [1, 1], "kernel_regularizer": null, "bias_initializer": {"class_name": "Zeros", "config": {}}, "use_bias": true, "activity_regularizer": null, "kernel_size": [1, 1]}, "inbound_nodes": [[["batch_normalization_3", 0, 0, {}]]], "name": "front_residual_x1_conv_1x1_x3"}, {"class_name": "Conv2D", "config": {"kernel_initializer": {"class_name": "VarianceScaling", "config": {"distribution": "uniform", "scale": 1.0, "seed": null, "mode": "fan_avg"}}, "name": "front_residual_x1skip", "kernel_constraint": null, "bias_regularizer": null, "bias_constraint": null, "dtype": "float32", "activation": "linear", "trainable": true, "data_format": "channels_last", "filters": 8, "padding": "same", "strides": [1, 1], "dilation_rate": [1, 1], "kernel_regularizer": null, "bias_initializer": {"class_name": "Zeros", "config": {}}, "use_bias": true, "activity_regularizer": null, "kernel_size": [1, 1]}, "inbound_nodes": [[["batch_normalization_1", 0, 0, {}]]], "name": "front_residual_x1skip"}, {"class_name": "LeakyReLU", "config": {"dtype": "float32", "trainable": true, "name": "leaky_re_lu_5", "alpha": 0.10000000149011612}, "inbound_nodes": [[["front_residual_x1_conv_1x1_x3", 0, 0, {}]]], "name": "leaky_re_lu_5"}, {"class_name": "LeakyReLU", "config": {"dtype": "float32", "trainable": true, "name": "leaky_re_lu_2", "alpha": 0.10000000149011612}, "inbound_nodes": [[["front_residual_x1skip", 0, 0, {}]]], "name": "leaky_re_lu_2"}, {"class_name": "BatchNormalization", "config": {"beta_constraint": null, "gamma_initializer": {"class_name": "Ones", "config": {}}, "moving_mean_initializer": {"class_name": "Zeros", "config": {}}, "name": "batch_normalization_4", "dtype": "float32", "trainable": true, "moving_variance_initializer": {"class_name": "Ones", "config": {}}, "beta_initializer": {"class_name": "Zeros", "config": {}}, "scale": true, "axis": -1, "epsilon": 0.001, "gamma_constraint": null, "gamma_regularizer": null, "beta_regularizer": null, "momentum": 0.99, "center": true}, "inbound_nodes": [[["leaky_re_lu_5", 0, 0, {}]]], "name": "batch_normalization_4"}, {"class_name": "Add", "config": {"dtype": "float32", "trainable": true, "name": "front_residual_x1_residual"}, "inbound_nodes": [[["leaky_re_lu_2", 0, 0, {}], ["batch_normalization_4", 0, 0, {}]]], "name": "front_residual_x1_residual"}, {"class_name": "MaxPooling2D", "config": {"name": "max_pooling2d_1", "dtype": "float32", "trainable": true, "data_format": "channels_last", "pool_size": [2, 2], "padding": "valid", "strides": [2, 2]}, "inbound_nodes": [[["front_residual_x1_residual", 0, 0, {}]]], "name": "max_pooling2d_1"}, {"class_name": "Conv2D", "config": {"kernel_initializer": {"class_name": "VarianceScaling", "config": {"distribution": "uniform", "scale": 1.0, "seed": null, "mode": "fan_avg"}}, "name": "front_residual_x2_conv_1x1_x1", "kernel_constraint": null, "bias_regularizer": null, "bias_constraint": null, "dtype": "float32", "activation": "linear", "trainable": true, "data_format": "channels_last", "filters": 4, "padding": "same", "strides": [1, 1], "dilation_rate": [1, 1], "kernel_regularizer": null, "bias_initializer": {"class_name": "Zeros", "config": {}}, "use_bias": true, "activity_regularizer": null, "kernel_size": [1, 1]}, "inbound_nodes": [[["max_pooling2d_1", 0, 0, {}]]], "name": "front_residual_x2_conv_1x1_x1"}, {"class_name": "LeakyReLU", "config": {"dtype": "float32", "trainable": true, "name": "leaky_re_lu_6", "alpha": 0.10000000149011612}, "inbound_nodes": [[["front_residual_x2_conv_1x1_x1", 0, 0, {}]]], "name": "leaky_re_lu_6"}, {"class_name": "BatchNormalization", "config": {"beta_constraint": null, "gamma_initializer": {"class_name": "Ones", "config": {}}, "moving_mean_initializer": {"class_name": "Zeros", "config": {}}, "name": "batch_normalization_5", "dtype": "float32", "trainable": true, "moving_variance_initializer": {"class_name": "Ones", "config": {}}, "beta_initializer": {"class_name": "Zeros", "config": {}}, "scale": true, "axis": -1, "epsilon": 0.001, "gamma_constraint": null, "gamma_regularizer": null, "beta_regularizer": null, "momentum": 0.99, "center": true}, "inbound_nodes": [[["leaky_re_lu_6", 0, 0, {}]]], "name": "batch_normalization_5"}, {"class_name": "Conv2D", "config": {"kernel_initializer": {"class_name": "VarianceScaling", "config": {"distribution": "uniform", "scale": 1.0, "seed": null, "mode": "fan_avg"}}, "name": "front_residual_x2_conv_3x3_x2", "kernel_constraint": null, "bias_regularizer": null, "bias_constraint": null, "dtype": "float32", "activation": "linear", "trainable": true, "data_format": "channels_last", "filters": 4, "padding": "same", "strides": [1, 1], "dilation_rate": [1, 1], "kernel_regularizer": null, "bias_initializer": {"class_name": "Zeros", "config": {}}, "use_bias": true, "activity_regularizer": null, "kernel_size": [3, 3]}, "inbound_nodes": [[["batch_normalization_5", 0, 0, {}]]], "name": "front_residual_x2_conv_3x3_x2"}, {"class_name": "LeakyReLU", "config": {"dtype": "float32", "trainable": true, "name": "leaky_re_lu_7", "alpha": 0.10000000149011612}, "inbound_nodes": [[["front_residual_x2_conv_3x3_x2", 0, 0, {}]]], "name": "leaky_re_lu_7"}, {"class_name": "BatchNormalization", "config": {"beta_constraint": null, "gamma_initializer": {"class_name": "Ones", "config": {}}, "moving_mean_initializer": {"class_name": "Zeros", "config": {}}, "name": "batch_normalization_6", "dtype": "float32", "trainable": true, "moving_variance_initializer": {"class_name": "Ones", "config": {}}, "beta_initializer": {"class_name": "Zeros", "config": {}}, "scale": true, "axis": -1, "epsilon": 0.001, "gamma_constraint": null, "gamma_regularizer": null, "beta_regularizer": null, "momentum": 0.99, "center": true}, "inbound_nodes": [[["leaky_re_lu_7", 0, 0, {}]]], "name": "batch_normalization_6"}, {"class_name": "Conv2D", "config": {"kernel_initializer": {"class_name": "VarianceScaling", "config": {"distribution": "uniform", "scale": 1.0, "seed": null, "mode": "fan_avg"}}, "name": "front_residual_x2_conv_1x1_x3", "kernel_constraint": null, "bias_regularizer": null, "bias_constraint": null, "dtype": "float32", "activation": "linear", "trainable": true, "data_format": "channels_last", "filters": 8, "padding": "same", "strides": [1, 1], "dilation_rate": [1, 1], "kernel_regularizer": null, "bias_initializer": {"class_name": "Zeros", "config": {}}, "use_bias": true, "activity_regularizer": null, "kernel_size": [1, 1]}, "inbound_nodes": [[["batch_normalization_6", 0, 0, {}]]], "name": "front_residual_x2_conv_1x1_x3"}, {"class_name": "LeakyReLU", "config": {"dtype": "float32", "trainable": true, "name": "leaky_re_lu_8", "alpha": 0.10000000149011612}, "inbound_nodes": [[["front_residual_x2_conv_1x1_x3", 0, 0, {}]]], "name": "leaky_re_lu_8"}, {"class_name": "BatchNormalization", "config": {"beta_constraint": null, "gamma_initializer": {"class_name": "Ones", "config": {}}, "moving_mean_initializer": {"class_name": "Zeros", "config": {}}, "name": "batch_normalization_7", "dtype": "float32", "trainable": true, "moving_variance_initializer": {"class_name": "Ones", "config": {}}, "beta_initializer": {"class_name": "Zeros", "config": {}}, "scale": true, "axis": -1, "epsilon": 0.001, "gamma_constraint": null, "gamma_regularizer": null, "beta_regularizer": null, "momentum": 0.99, "center": true}, "inbound_nodes": [[["leaky_re_lu_8", 0, 0, {}]]], "name": "batch_normalization_7"}, {"class_name": "Add", "config": {"dtype": "float32", "trainable": true, "name": "front_residual_x2_residual"}, "inbound_nodes": [[["max_pooling2d_1", 0, 0, {}], ["batch_normalization_7", 0, 0, {}]]], "name": "front_residual_x2_residual"}, {"class_name": "Conv2D", "config": {"kernel_initializer": {"class_name": "VarianceScaling", "config": {"distribution": "uniform", "scale": 1.0, "seed": null, "mode": "fan_avg"}}, "name": "front_residual_x3_conv_1x1_x1", "kernel_constraint": null, "bias_regularizer": null, "bias_constraint": null, "dtype": "float32", "activation": "linear", "trainable": true, "data_format": "channels_last", "filters": 8, "padding": "same", "strides": [1, 1], "dilation_rate": [1, 1], "kernel_regularizer": null, "bias_initializer": {"class_name": "Zeros", "config": {}}, "use_bias": true, "activity_regularizer": null, "kernel_size": [1, 1]}, "inbound_nodes": [[["front_residual_x2_residual", 0, 0, {}]]], "name": "front_residual_x3_conv_1x1_x1"}, {"class_name": "LeakyReLU", "config": {"dtype": "float32", "trainable": true, "name": "leaky_re_lu_10", "alpha": 0.10000000149011612}, "inbound_nodes": [[["front_residual_x3_conv_1x1_x1", 0, 0, {}]]], "name": "leaky_re_lu_10"}, {"class_name": "BatchNormalization", "config": {"beta_constraint": null, "gamma_initializer": {"class_name": "Ones", "config": {}}, "moving_mean_initializer": {"class_name": "Zeros", "config": {}}, "name": "batch_normalization_8", "dtype": "float32", "trainable": true, "moving_variance_initializer": {"class_name": "Ones", "config": {}}, "beta_initializer": {"class_name": "Zeros", "config": {}}, "scale": true, "axis": -1, "epsilon": 0.001, "gamma_constraint": null, "gamma_regularizer": null, "beta_regularizer": null, "momentum": 0.99, "center": true}, "inbound_nodes": [[["leaky_re_lu_10", 0, 0, {}]]], "name": "batch_normalization_8"}, {"class_name": "Conv2D", "config": {"kernel_initializer": {"class_name": "VarianceScaling", "config": {"distribution": "uniform", "scale": 1.0, "seed": null, "mode": "fan_avg"}}, "name": "front_residual_x3_conv_3x3_x2", "kernel_constraint": null, "bias_regularizer": null, "bias_constraint": null, "dtype": "float32", "activation": "linear", "trainable": true, "data_format": "channels_last", "filters": 8, "padding": "same", "strides": [1, 1], "dilation_rate": [1, 1], "kernel_regularizer": null, "bias_initializer": {"class_name": "Zeros", "config": {}}, "use_bias": true, "activity_regularizer": null, "kernel_size": [3, 3]}, "inbound_nodes": [[["batch_normalization_8", 0, 0, {}]]], "name": "front_residual_x3_conv_3x3_x2"}, {"class_name": "LeakyReLU", "config": {"dtype": "float32", "trainable": true, "name": "leaky_re_lu_11", "alpha": 0.10000000149011612}, "inbound_nodes": [[["front_residual_x3_conv_3x3_x2", 0, 0, {}]]], "name": "leaky_re_lu_11"}, {"class_name": "BatchNormalization", "config": {"beta_constraint": null, "gamma_initializer": {"class_name": "Ones", "config": {}}, "moving_mean_initializer": {"class_name": "Zeros", "config": {}}, "name": "batch_normalization_9", "dtype": "float32", "trainable": true, "moving_variance_initializer": {"class_name": "Ones", "config": {}}, "beta_initializer": {"class_name": "Zeros", "config": {}}, "scale": true, "axis": -1, "epsilon": 0.001, "gamma_constraint": null, "gamma_regularizer": null, "beta_regularizer": null, "momentum": 0.99, "center": true}, "inbound_nodes": [[["leaky_re_lu_11", 0, 0, {}]]], "name": "batch_normalization_9"}, {"class_name": "Conv2D", "config": {"kernel_initializer": {"class_name": "VarianceScaling", "config": {"distribution": "uniform", "scale": 1.0, "seed": null, "mode": "fan_avg"}}, "name": "front_residual_x3_conv_1x1_x3", "kernel_constraint": null, "bias_regularizer": null, "bias_constraint": null, "dtype": "float32", "activation": "linear", "trainable": true, "data_format": "channels_last", "filters": 16, "padding": "same", "strides": [1, 1], "dilation_rate": [1, 1], "kernel_regularizer": null, "bias_initializer": {"class_name": "Zeros", "config": {}}, "use_bias": true, "activity_regularizer": null, "kernel_size": [1, 1]}, "inbound_nodes": [[["batch_normalization_9", 0, 0, {}]]], "name": "front_residual_x3_conv_1x1_x3"}, {"class_name": "Conv2D", "config": {"kernel_initializer": {"class_name": "VarianceScaling", "config": {"distribution": "uniform", "scale": 1.0, "seed": null, "mode": "fan_avg"}}, "name": "front_residual_x3skip", "kernel_constraint": null, "bias_regularizer": null, "bias_constraint": null, "dtype": "float32", "activation": "linear", "trainable": true, "data_format": "channels_last", "filters": 16, "padding": "same", "strides": [1, 1], "dilation_rate": [1, 1], "kernel_regularizer": null, "bias_initializer": {"class_name": "Zeros", "config": {}}, "use_bias": true, "activity_regularizer": null, "kernel_size": [1, 1]}, "inbound_nodes": [[["front_residual_x2_residual", 0, 0, {}]]], "name": "front_residual_x3skip"}, {"class_name": "LeakyReLU", "config": {"dtype": "float32", "trainable": true, "name": "leaky_re_lu_12", "alpha": 0.10000000149011612}, "inbound_nodes": [[["front_residual_x3_conv_1x1_x3", 0, 0, {}]]], "name": "leaky_re_lu_12"}, {"class_name": "LeakyReLU", "config": {"dtype": "float32", "trainable": true, "name": "leaky_re_lu_9", "alpha": 0.10000000149011612}, "inbound_nodes": [[["front_residual_x3skip", 0, 0, {}]]], "name": "leaky_re_lu_9"}, {"class_name": "BatchNormalization", "config": {"beta_constraint": null, "gamma_initializer": {"class_name": "Ones", "config": {}}, "moving_mean_initializer": {"class_name": "Zeros", "config": {}}, "name": "batch_normalization_10", "dtype": "float32", "trainable": true, "moving_variance_initializer": {"class_name": "Ones", "config": {}}, "beta_initializer": {"class_name": "Zeros", "config": {}}, "scale": true, "axis": -1, "epsilon": 0.001, "gamma_constraint": null, "gamma_regularizer": null, "beta_regularizer": null, "momentum": 0.99, "center": true}, "inbound_nodes": [[["leaky_re_lu_12", 0, 0, {}]]], "name": "batch_normalization_10"}, {"class_name": "Add", "config": {"dtype": "float32", "trainable": true, "name": "front_residual_x3_residual"}, "inbound_nodes": [[["leaky_re_lu_9", 0, 0, {}], ["batch_normalization_10", 0, 0, {}]]], "name": "front_residual_x3_residual"}, {"class_name": "Conv2D", "config": {"kernel_initializer": {"class_name": "VarianceScaling", "config": {"distribution": "uniform", "scale": 1.0, "seed": null, "mode": "fan_avg"}}, "name": "hg0_l1_conv_1x1_x1", "kernel_constraint": null, "bias_regularizer": null, "bias_constraint": null, "dtype": "float32", "activation": "linear", "trainable": true, "data_format": "channels_last", "filters": 8, "padding": "same", "strides": [1, 1], "dilation_rate": [1, 1], "kernel_regularizer": null, "bias_initializer": {"class_name": "Zeros", "config": {}}, "use_bias": true, "activity_regularizer": null, "kernel_size": [1, 1]}, "inbound_nodes": [[["front_residual_x3_residual", 0, 0, {}]]], "name": "hg0_l1_conv_1x1_x1"}, {"class_name": "LeakyReLU", "config": {"dtype": "float32", "trainable": true, "name": "leaky_re_lu_13", "alpha": 0.10000000149011612}, "inbound_nodes": [[["hg0_l1_conv_1x1_x1", 0, 0, {}]]], "name": "leaky_re_lu_13"}, {"class_name": "BatchNormalization", "config": {"beta_constraint": null, "gamma_initializer": {"class_name": "Ones", "config": {}}, "moving_mean_initializer": {"class_name": "Zeros", "config": {}}, "name": "batch_normalization_11", "dtype": "float32", "trainable": true, "moving_variance_initializer": {"class_name": "Ones", "config": {}}, "beta_initializer": {"class_name": "Zeros", "config": {}}, "scale": true, "axis": -1, "epsilon": 0.001, "gamma_constraint": null, "gamma_regularizer": null, "beta_regularizer": null, "momentum": 0.99, "center": true}, "inbound_nodes": [[["leaky_re_lu_13", 0, 0, {}]]], "name": "batch_normalization_11"}, {"class_name": "Conv2D", "config": {"kernel_initializer": {"class_name": "VarianceScaling", "config": {"distribution": "uniform", "scale": 1.0, "seed": null, "mode": "fan_avg"}}, "name": "hg0_l1_conv_3x3_x2", "kernel_constraint": null, "bias_regularizer": null, "bias_constraint": null, "dtype": "float32", "activation": "linear", "trainable": true, "data_format": "channels_last", "filters": 8, "padding": "same", "strides": [1, 1], "dilation_rate": [1, 1], "kernel_regularizer": null, "bias_initializer": {"class_name": "Zeros", "config": {}}, "use_bias": true, "activity_regularizer": null, "kernel_size": [3, 3]}, "inbound_nodes": [[["batch_normalization_11", 0, 0, {}]]], "name": "hg0_l1_conv_3x3_x2"}, {"class_name": "LeakyReLU", "config": {"dtype": "float32", "trainable": true, "name": "leaky_re_lu_14", "alpha": 0.10000000149011612}, "inbound_nodes": [[["hg0_l1_conv_3x3_x2", 0, 0, {}]]], "name": "leaky_re_lu_14"}, {"class_name": "BatchNormalization", "config": {"beta_constraint": null, "gamma_initializer": {"class_name": "Ones", "config": {}}, "moving_mean_initializer": {"class_name": "Zeros", "config": {}}, "name": "batch_normalization_12", "dtype": "float32", "trainable": true, "moving_variance_initializer": {"class_name": "Ones", "config": {}}, "beta_initializer": {"class_name": "Zeros", "config": {}}, "scale": true, "axis": -1, "epsilon": 0.001, "gamma_constraint": null, "gamma_regularizer": null, "beta_regularizer": null, "momentum": 0.99, "center": true}, "inbound_nodes": [[["leaky_re_lu_14", 0, 0, {}]]], "name": "batch_normalization_12"}, {"class_name": "Conv2D", "config": {"kernel_initializer": {"class_name": "VarianceScaling", "config": {"distribution": "uniform", "scale": 1.0, "seed": null, "mode": "fan_avg"}}, "name": "hg0_l1_conv_1x1_x3", "kernel_constraint": null, "bias_regularizer": null, "bias_constraint": null, "dtype": "float32", "activation": "linear", "trainable": true, "data_format": "channels_last", "filters": 16, "padding": "same", "strides": [1, 1], "dilation_rate": [1, 1], "kernel_regularizer": null, "bias_initializer": {"class_name": "Zeros", "config": {}}, "use_bias": true, "activity_regularizer": null, "kernel_size": [1, 1]}, "inbound_nodes": [[["batch_normalization_12", 0, 0, {}]]], "name": "hg0_l1_conv_1x1_x3"}, {"class_name": "LeakyReLU", "config": {"dtype": "float32", "trainable": true, "name": "leaky_re_lu_15", "alpha": 0.10000000149011612}, "inbound_nodes": [[["hg0_l1_conv_1x1_x3", 0, 0, {}]]], "name": "leaky_re_lu_15"}, {"class_name": "BatchNormalization", "config": {"beta_constraint": null, "gamma_initializer": {"class_name": "Ones", "config": {}}, "moving_mean_initializer": {"class_name": "Zeros", "config": {}}, "name": "batch_normalization_13", "dtype": "float32", "trainable": true, "moving_variance_initializer": {"class_name": "Ones", "config": {}}, "beta_initializer": {"class_name": "Zeros", "config": {}}, "scale": true, "axis": -1, "epsilon": 0.001, "gamma_constraint": null, "gamma_regularizer": null, "beta_regularizer": null, "momentum": 0.99, "center": true}, "inbound_nodes": [[["leaky_re_lu_15", 0, 0, {}]]], "name": "batch_normalization_13"}, {"class_name": "Add", "config": {"dtype": "float32", "trainable": true, "name": "hg0_l1_residual"}, "inbound_nodes": [[["front_residual_x3_residual", 0, 0, {}], ["batch_normalization_13", 0, 0, {}]]], "name": "hg0_l1_residual"}, {"class_name": "MaxPooling2D", "config": {"name": "max_pooling2d_2", "dtype": "float32", "trainable": true, "data_format": "channels_last", "pool_size": [2, 2], "padding": "valid", "strides": [2, 2]}, "inbound_nodes": [[["hg0_l1_residual", 0, 0, {}]]], "name": "max_pooling2d_2"}, {"class_name": "Conv2D", "config": {"kernel_initializer": {"class_name": "VarianceScaling", "config": {"distribution": "uniform", "scale": 1.0, "seed": null, "mode": "fan_avg"}}, "name": "hg0_l2_conv_1x1_x1", "kernel_constraint": null, "bias_regularizer": null, "bias_constraint": null, "dtype": "float32", "activation": "linear", "trainable": true, "data_format": "channels_last", "filters": 8, "padding": "same", "strides": [1, 1], "dilation_rate": [1, 1], "kernel_regularizer": null, "bias_initializer": {"class_name": "Zeros", "config": {}}, "use_bias": true, "activity_regularizer": null, "kernel_size": [1, 1]}, "inbound_nodes": [[["max_pooling2d_2", 0, 0, {}]]], "name": "hg0_l2_conv_1x1_x1"}, {"class_name": "LeakyReLU", "config": {"dtype": "float32", "trainable": true, "name": "leaky_re_lu_16", "alpha": 0.10000000149011612}, "inbound_nodes": [[["hg0_l2_conv_1x1_x1", 0, 0, {}]]], "name": "leaky_re_lu_16"}, {"class_name": "BatchNormalization", "config": {"beta_constraint": null, "gamma_initializer": {"class_name": "Ones", "config": {}}, "moving_mean_initializer": {"class_name": "Zeros", "config": {}}, "name": "batch_normalization_14", "dtype": "float32", "trainable": true, "moving_variance_initializer": {"class_name": "Ones", "config": {}}, "beta_initializer": {"class_name": "Zeros", "config": {}}, "scale": true, "axis": -1, "epsilon": 0.001, "gamma_constraint": null, "gamma_regularizer": null, "beta_regularizer": null, "momentum": 0.99, "center": true}, "inbound_nodes": [[["leaky_re_lu_16", 0, 0, {}]]], "name": "batch_normalization_14"}, {"class_name": "Conv2D", "config": {"kernel_initializer": {"class_name": "VarianceScaling", "config": {"distribution": "uniform", "scale": 1.0, "seed": null, "mode": "fan_avg"}}, "name": "hg0_l2_conv_3x3_x2", "kernel_constraint": null, "bias_regularizer": null, "bias_constraint": null, "dtype": "float32", "activation": "linear", "trainable": true, "data_format": "channels_last", "filters": 8, "padding": "same", "strides": [1, 1], "dilation_rate": [1, 1], "kernel_regularizer": null, "bias_initializer": {"class_name": "Zeros", "config": {}}, "use_bias": true, "activity_regularizer": null, "kernel_size": [3, 3]}, "inbound_nodes": [[["batch_normalization_14", 0, 0, {}]]], "name": "hg0_l2_conv_3x3_x2"}, {"class_name": "LeakyReLU", "config": {"dtype": "float32", "trainable": true, "name": "leaky_re_lu_17", "alpha": 0.10000000149011612}, "inbound_nodes": [[["hg0_l2_conv_3x3_x2", 0, 0, {}]]], "name": "leaky_re_lu_17"}, {"class_name": "BatchNormalization", "config": {"beta_constraint": null, "gamma_initializer": {"class_name": "Ones", "config": {}}, "moving_mean_initializer": {"class_name": "Zeros", "config": {}}, "name": "batch_normalization_15", "dtype": "float32", "trainable": true, "moving_variance_initializer": {"class_name": "Ones", "config": {}}, "beta_initializer": {"class_name": "Zeros", "config": {}}, "scale": true, "axis": -1, "epsilon": 0.001, "gamma_constraint": null, "gamma_regularizer": null, "beta_regularizer": null, "momentum": 0.99, "center": true}, "inbound_nodes": [[["leaky_re_lu_17", 0, 0, {}]]], "name": "batch_normalization_15"}, {"class_name": "Conv2D", "config": {"kernel_initializer": {"class_name": "VarianceScaling", "config": {"distribution": "uniform", "scale": 1.0, "seed": null, "mode": "fan_avg"}}, "name": "hg0_l2_conv_1x1_x3", "kernel_constraint": null, "bias_regularizer": null, "bias_constraint": null, "dtype": "float32", "activation": "linear", "trainable": true, "data_format": "channels_last", "filters": 16, "padding": "same", "strides": [1, 1], "dilation_rate": [1, 1], "kernel_regularizer": null, "bias_initializer": {"class_name": "Zeros", "config": {}}, "use_bias": true, "activity_regularizer": null, "kernel_size": [1, 1]}, "inbound_nodes": [[["batch_normalization_15", 0, 0, {}]]], "name": "hg0_l2_conv_1x1_x3"}, {"class_name": "LeakyReLU", "config": {"dtype": "float32", "trainable": true, "name": "leaky_re_lu_18", "alpha": 0.10000000149011612}, "inbound_nodes": [[["hg0_l2_conv_1x1_x3", 0, 0, {}]]], "name": "leaky_re_lu_18"}, {"class_name": "BatchNormalization", "config": {"beta_constraint": null, "gamma_initializer": {"class_name": "Ones", "config": {}}, "moving_mean_initializer": {"class_name": "Zeros", "config": {}}, "name": "batch_normalization_16", "dtype": "float32", "trainable": true, "moving_variance_initializer": {"class_name": "Ones", "config": {}}, "beta_initializer": {"class_name": "Zeros", "config": {}}, "scale": true, "axis": -1, "epsilon": 0.001, "gamma_constraint": null, "gamma_regularizer": null, "beta_regularizer": null, "momentum": 0.99, "center": true}, "inbound_nodes": [[["leaky_re_lu_18", 0, 0, {}]]], "name": "batch_normalization_16"}, {"class_name": "Add", "config": {"dtype": "float32", "trainable": true, "name": "hg0_l2_residual"}, "inbound_nodes": [[["max_pooling2d_2", 0, 0, {}], ["batch_normalization_16", 0, 0, {}]]], "name": "hg0_l2_residual"}, {"class_name": "MaxPooling2D", "config": {"name": "max_pooling2d_3", "dtype": "float32", "trainable": true, "data_format": "channels_last", "pool_size": [2, 2], "padding": "valid", "strides": [2, 2]}, "inbound_nodes": [[["hg0_l2_residual", 0, 0, {}]]], "name": "max_pooling2d_3"}, {"class_name": "Conv2D", "config": {"kernel_initializer": {"class_name": "VarianceScaling", "config": {"distribution": "uniform", "scale": 1.0, "seed": null, "mode": "fan_avg"}}, "name": "hg0_l4_conv_1x1_x1", "kernel_constraint": null, "bias_regularizer": null, "bias_constraint": null, "dtype": "float32", "activation": "linear", "trainable": true, "data_format": "channels_last", "filters": 8, "padding": "same", "strides": [1, 1], "dilation_rate": [1, 1], "kernel_regularizer": null, "bias_initializer": {"class_name": "Zeros", "config": {}}, "use_bias": true, "activity_regularizer": null, "kernel_size": [1, 1]}, "inbound_nodes": [[["max_pooling2d_3", 0, 0, {}]]], "name": "hg0_l4_conv_1x1_x1"}, {"class_name": "LeakyReLU", "config": {"dtype": "float32", "trainable": true, "name": "leaky_re_lu_19", "alpha": 0.10000000149011612}, "inbound_nodes": [[["hg0_l4_conv_1x1_x1", 0, 0, {}]]], "name": "leaky_re_lu_19"}, {"class_name": "BatchNormalization", "config": {"beta_constraint": null, "gamma_initializer": {"class_name": "Ones", "config": {}}, "moving_mean_initializer": {"class_name": "Zeros", "config": {}}, "name": "batch_normalization_17", "dtype": "float32", "trainable": true, "moving_variance_initializer": {"class_name": "Ones", "config": {}}, "beta_initializer": {"class_name": "Zeros", "config": {}}, "scale": true, "axis": -1, "epsilon": 0.001, "gamma_constraint": null, "gamma_regularizer": null, "beta_regularizer": null, "momentum": 0.99, "center": true}, "inbound_nodes": [[["leaky_re_lu_19", 0, 0, {}]]], "name": "batch_normalization_17"}, {"class_name": "Conv2D", "config": {"kernel_initializer": {"class_name": "VarianceScaling", "config": {"distribution": "uniform", "scale": 1.0, "seed": null, "mode": "fan_avg"}}, "name": "hg0_l4_conv_3x3_x2", "kernel_constraint": null, "bias_regularizer": null, "bias_constraint": null, "dtype": "float32", "activation": "linear", "trainable": true, "data_format": "channels_last", "filters": 8, "padding": "same", "strides": [1, 1], "dilation_rate": [1, 1], "kernel_regularizer": null, "bias_initializer": {"class_name": "Zeros", "config": {}}, "use_bias": true, "activity_regularizer": null, "kernel_size": [3, 3]}, "inbound_nodes": [[["batch_normalization_17", 0, 0, {}]]], "name": "hg0_l4_conv_3x3_x2"}, {"class_name": "LeakyReLU", "config": {"dtype": "float32", "trainable": true, "name": "leaky_re_lu_20", "alpha": 0.10000000149011612}, "inbound_nodes": [[["hg0_l4_conv_3x3_x2", 0, 0, {}]]], "name": "leaky_re_lu_20"}, {"class_name": "BatchNormalization", "config": {"beta_constraint": null, "gamma_initializer": {"class_name": "Ones", "config": {}}, "moving_mean_initializer": {"class_name": "Zeros", "config": {}}, "name": "batch_normalization_18", "dtype": "float32", "trainable": true, "moving_variance_initializer": {"class_name": "Ones", "config": {}}, "beta_initializer": {"class_name": "Zeros", "config": {}}, "scale": true, "axis": -1, "epsilon": 0.001, "gamma_constraint": null, "gamma_regularizer": null, "beta_regularizer": null, "momentum": 0.99, "center": true}, "inbound_nodes": [[["leaky_re_lu_20", 0, 0, {}]]], "name": "batch_normalization_18"}, {"class_name": "Conv2D", "config": {"kernel_initializer": {"class_name": "VarianceScaling", "config": {"distribution": "uniform", "scale": 1.0, "seed": null, "mode": "fan_avg"}}, "name": "hg0_l4_conv_1x1_x3", "kernel_constraint": null, "bias_regularizer": null, "bias_constraint": null, "dtype": "float32", "activation": "linear", "trainable": true, "data_format": "channels_last", "filters": 16, "padding": "same", "strides": [1, 1], "dilation_rate": [1, 1], "kernel_regularizer": null, "bias_initializer": {"class_name": "Zeros", "config": {}}, "use_bias": true, "activity_regularizer": null, "kernel_size": [1, 1]}, "inbound_nodes": [[["batch_normalization_18", 0, 0, {}]]], "name": "hg0_l4_conv_1x1_x3"}, {"class_name": "LeakyReLU", "config": {"dtype": "float32", "trainable": true, "name": "leaky_re_lu_21", "alpha": 0.10000000149011612}, "inbound_nodes": [[["hg0_l4_conv_1x1_x3", 0, 0, {}]]], "name": "leaky_re_lu_21"}, {"class_name": "BatchNormalization", "config": {"beta_constraint": null, "gamma_initializer": {"class_name": "Ones", "config": {}}, "moving_mean_initializer": {"class_name": "Zeros", "config": {}}, "name": "batch_normalization_19", "dtype": "float32", "trainable": true, "moving_variance_initializer": {"class_name": "Ones", "config": {}}, "beta_initializer": {"class_name": "Zeros", "config": {}}, "scale": true, "axis": -1, "epsilon": 0.001, "gamma_constraint": null, "gamma_regularizer": null, "beta_regularizer": null, "momentum": 0.99, "center": true}, "inbound_nodes": [[["leaky_re_lu_21", 0, 0, {}]]], "name": "batch_normalization_19"}, {"class_name": "Add", "config": {"dtype": "float32", "trainable": true, "name": "hg0_l4_residual"}, "inbound_nodes": [[["max_pooling2d_3", 0, 0, {}], ["batch_normalization_19", 0, 0, {}]]], "name": "hg0_l4_residual"}, {"class_name": "MaxPooling2D", "config": {"name": "max_pooling2d_4", "dtype": "float32", "trainable": true, "data_format": "channels_last", "pool_size": [2, 2], "padding": "valid", "strides": [2, 2]}, "inbound_nodes": [[["hg0_l4_residual", 0, 0, {}]]], "name": "max_pooling2d_4"}, {"class_name": "Conv2D", "config": {"kernel_initializer": {"class_name": "VarianceScaling", "config": {"distribution": "uniform", "scale": 1.0, "seed": null, "mode": "fan_avg"}}, "name": "hg0_l8_conv_1x1_x1", "kernel_constraint": null, "bias_regularizer": null, "bias_constraint": null, "dtype": "float32", "activation": "linear", "trainable": true, "data_format": "channels_last", "filters": 8, "padding": "same", "strides": [1, 1], "dilation_rate": [1, 1], "kernel_regularizer": null, "bias_initializer": {"class_name": "Zeros", "config": {}}, "use_bias": true, "activity_regularizer": null, "kernel_size": [1, 1]}, "inbound_nodes": [[["max_pooling2d_4", 0, 0, {}]]], "name": "hg0_l8_conv_1x1_x1"}, {"class_name": "LeakyReLU", "config": {"dtype": "float32", "trainable": true, "name": "leaky_re_lu_22", "alpha": 0.10000000149011612}, "inbound_nodes": [[["hg0_l8_conv_1x1_x1", 0, 0, {}]]], "name": "leaky_re_lu_22"}, {"class_name": "BatchNormalization", "config": {"beta_constraint": null, "gamma_initializer": {"class_name": "Ones", "config": {}}, "moving_mean_initializer": {"class_name": "Zeros", "config": {}}, "name": "batch_normalization_20", "dtype": "float32", "trainable": true, "moving_variance_initializer": {"class_name": "Ones", "config": {}}, "beta_initializer": {"class_name": "Zeros", "config": {}}, "scale": true, "axis": -1, "epsilon": 0.001, "gamma_constraint": null, "gamma_regularizer": null, "beta_regularizer": null, "momentum": 0.99, "center": true}, "inbound_nodes": [[["leaky_re_lu_22", 0, 0, {}]]], "name": "batch_normalization_20"}, {"class_name": "Conv2D", "config": {"kernel_initializer": {"class_name": "VarianceScaling", "config": {"distribution": "uniform", "scale": 1.0, "seed": null, "mode": "fan_avg"}}, "name": "hg0_l8_conv_3x3_x2", "kernel_constraint": null, "bias_regularizer": null, "bias_constraint": null, "dtype": "float32", "activation": "linear", "trainable": true, "data_format": "channels_last", "filters": 8, "padding": "same", "strides": [1, 1], "dilation_rate": [1, 1], "kernel_regularizer": null, "bias_initializer": {"class_name": "Zeros", "config": {}}, "use_bias": true, "activity_regularizer": null, "kernel_size": [3, 3]}, "inbound_nodes": [[["batch_normalization_20", 0, 0, {}]]], "name": "hg0_l8_conv_3x3_x2"}, {"class_name": "LeakyReLU", "config": {"dtype": "float32", "trainable": true, "name": "leaky_re_lu_23", "alpha": 0.10000000149011612}, "inbound_nodes": [[["hg0_l8_conv_3x3_x2", 0, 0, {}]]], "name": "leaky_re_lu_23"}, {"class_name": "BatchNormalization", "config": {"beta_constraint": null, "gamma_initializer": {"class_name": "Ones", "config": {}}, "moving_mean_initializer": {"class_name": "Zeros", "config": {}}, "name": "batch_normalization_21", "dtype": "float32", "trainable": true, "moving_variance_initializer": {"class_name": "Ones", "config": {}}, "beta_initializer": {"class_name": "Zeros", "config": {}}, "scale": true, "axis": -1, "epsilon": 0.001, "gamma_constraint": null, "gamma_regularizer": null, "beta_regularizer": null, "momentum": 0.99, "center": true}, "inbound_nodes": [[["leaky_re_lu_23", 0, 0, {}]]], "name": "batch_normalization_21"}, {"class_name": "Conv2D", "config": {"kernel_initializer": {"class_name": "VarianceScaling", "config": {"distribution": "uniform", "scale": 1.0, "seed": null, "mode": "fan_avg"}}, "name": "hg0_l8_conv_1x1_x3", "kernel_constraint": null, "bias_regularizer": null, "bias_constraint": null, "dtype": "float32", "activation": "linear", "trainable": true, "data_format": "channels_last", "filters": 16, "padding": "same", "strides": [1, 1], "dilation_rate": [1, 1], "kernel_regularizer": null, "bias_initializer": {"class_name": "Zeros", "config": {}}, "use_bias": true, "activity_regularizer": null, "kernel_size": [1, 1]}, "inbound_nodes": [[["batch_normalization_21", 0, 0, {}]]], "name": "hg0_l8_conv_1x1_x3"}, {"class_name": "LeakyReLU", "config": {"dtype": "float32", "trainable": true, "name": "leaky_re_lu_24", "alpha": 0.10000000149011612}, "inbound_nodes": [[["hg0_l8_conv_1x1_x3", 0, 0, {}]]], "name": "leaky_re_lu_24"}, {"class_name": "BatchNormalization", "config": {"beta_constraint": null, "gamma_initializer": {"class_name": "Ones", "config": {}}, "moving_mean_initializer": {"class_name": "Zeros", "config": {}}, "name": "batch_normalization_22", "dtype": "float32", "trainable": true, "moving_variance_initializer": {"class_name": "Ones", "config": {}}, "beta_initializer": {"class_name": "Zeros", "config": {}}, "scale": true, "axis": -1, "epsilon": 0.001, "gamma_constraint": null, "gamma_regularizer": null, "beta_regularizer": null, "momentum": 0.99, "center": true}, "inbound_nodes": [[["leaky_re_lu_24", 0, 0, {}]]], "name": "batch_normalization_22"}, {"class_name": "Add", "config": {"dtype": "float32", "trainable": true, "name": "hg0_l8_residual"}, "inbound_nodes": [[["max_pooling2d_4", 0, 0, {}], ["batch_normalization_22", 0, 0, {}]]], "name": "hg0_l8_residual"}, {"class_name": "Conv2D", "config": {"kernel_initializer": {"class_name": "VarianceScaling", "config": {"distribution": "uniform", "scale": 1.0, "seed": null, "mode": "fan_avg"}}, "name": "0_lf8_x1_conv_1x1_x1", "kernel_constraint": null, "bias_regularizer": null, "bias_constraint": null, "dtype": "float32", "activation": "linear", "trainable": true, "data_format": "channels_last", "filters": 8, "padding": "same", "strides": [1, 1], "dilation_rate": [1, 1], "kernel_regularizer": null, "bias_initializer": {"class_name": "Zeros", "config": {}}, "use_bias": true, "activity_regularizer": null, "kernel_size": [1, 1]}, "inbound_nodes": [[["hg0_l8_residual", 0, 0, {}]]], "name": "0_lf8_x1_conv_1x1_x1"}, {"class_name": "LeakyReLU", "config": {"dtype": "float32", "trainable": true, "name": "leaky_re_lu_28", "alpha": 0.10000000149011612}, "inbound_nodes": [[["0_lf8_x1_conv_1x1_x1", 0, 0, {}]]], "name": "leaky_re_lu_28"}, {"class_name": "BatchNormalization", "config": {"beta_constraint": null, "gamma_initializer": {"class_name": "Ones", "config": {}}, "moving_mean_initializer": {"class_name": "Zeros", "config": {}}, "name": "batch_normalization_26", "dtype": "float32", "trainable": true, "moving_variance_initializer": {"class_name": "Ones", "config": {}}, "beta_initializer": {"class_name": "Zeros", "config": {}}, "scale": true, "axis": -1, "epsilon": 0.001, "gamma_constraint": null, "gamma_regularizer": null, "beta_regularizer": null, "momentum": 0.99, "center": true}, "inbound_nodes": [[["leaky_re_lu_28", 0, 0, {}]]], "name": "batch_normalization_26"}, {"class_name": "Conv2D", "config": {"kernel_initializer": {"class_name": "VarianceScaling", "config": {"distribution": "uniform", "scale": 1.0, "seed": null, "mode": "fan_avg"}}, "name": "0_lf8_x1_conv_3x3_x2", "kernel_constraint": null, "bias_regularizer": null, "bias_constraint": null, "dtype": "float32", "activation": "linear", "trainable": true, "data_format": "channels_last", "filters": 8, "padding": "same", "strides": [1, 1], "dilation_rate": [1, 1], "kernel_regularizer": null, "bias_initializer": {"class_name": "Zeros", "config": {}}, "use_bias": true, "activity_regularizer": null, "kernel_size": [3, 3]}, "inbound_nodes": [[["batch_normalization_26", 0, 0, {}]]], "name": "0_lf8_x1_conv_3x3_x2"}, {"class_name": "LeakyReLU", "config": {"dtype": "float32", "trainable": true, "name": "leaky_re_lu_29", "alpha": 0.10000000149011612}, "inbound_nodes": [[["0_lf8_x1_conv_3x3_x2", 0, 0, {}]]], "name": "leaky_re_lu_29"}, {"class_name": "BatchNormalization", "config": {"beta_constraint": null, "gamma_initializer": {"class_name": "Ones", "config": {}}, "moving_mean_initializer": {"class_name": "Zeros", "config": {}}, "name": "batch_normalization_27", "dtype": "float32", "trainable": true, "moving_variance_initializer": {"class_name": "Ones", "config": {}}, "beta_initializer": {"class_name": "Zeros", "config": {}}, "scale": true, "axis": -1, "epsilon": 0.001, "gamma_constraint": null, "gamma_regularizer": null, "beta_regularizer": null, "momentum": 0.99, "center": true}, "inbound_nodes": [[["leaky_re_lu_29", 0, 0, {}]]], "name": "batch_normalization_27"}, {"class_name": "Conv2D", "config": {"kernel_initializer": {"class_name": "VarianceScaling", "config": {"distribution": "uniform", "scale": 1.0, "seed": null, "mode": "fan_avg"}}, "name": "0_lf8_x1_conv_1x1_x3", "kernel_constraint": null, "bias_regularizer": null, "bias_constraint": null, "dtype": "float32", "activation": "linear", "trainable": true, "data_format": "channels_last", "filters": 16, "padding": "same", "strides": [1, 1], "dilation_rate": [1, 1], "kernel_regularizer": null, "bias_initializer": {"class_name": "Zeros", "config": {}}, "use_bias": true, "activity_regularizer": null, "kernel_size": [1, 1]}, "inbound_nodes": [[["batch_normalization_27", 0, 0, {}]]], "name": "0_lf8_x1_conv_1x1_x3"}, {"class_name": "LeakyReLU", "config": {"dtype": "float32", "trainable": true, "name": "leaky_re_lu_30", "alpha": 0.10000000149011612}, "inbound_nodes": [[["0_lf8_x1_conv_1x1_x3", 0, 0, {}]]], "name": "leaky_re_lu_30"}, {"class_name": "BatchNormalization", "config": {"beta_constraint": null, "gamma_initializer": {"class_name": "Ones", "config": {}}, "moving_mean_initializer": {"class_name": "Zeros", "config": {}}, "name": "batch_normalization_28", "dtype": "float32", "trainable": true, "moving_variance_initializer": {"class_name": "Ones", "config": {}}, "beta_initializer": {"class_name": "Zeros", "config": {}}, "scale": true, "axis": -1, "epsilon": 0.001, "gamma_constraint": null, "gamma_regularizer": null, "beta_regularizer": null, "momentum": 0.99, "center": true}, "inbound_nodes": [[["leaky_re_lu_30", 0, 0, {}]]], "name": "batch_normalization_28"}, {"class_name": "Add", "config": {"dtype": "float32", "trainable": true, "name": "0_lf8_x1_residual"}, "inbound_nodes": [[["hg0_l8_residual", 0, 0, {}], ["batch_normalization_28", 0, 0, {}]]], "name": "0_lf8_x1_residual"}, {"class_name": "Conv2D", "config": {"kernel_initializer": {"class_name": "VarianceScaling", "config": {"distribution": "uniform", "scale": 1.0, "seed": null, "mode": "fan_avg"}}, "name": "0_lf8_x2_conv_1x1_x1", "kernel_constraint": null, "bias_regularizer": null, "bias_constraint": null, "dtype": "float32", "activation": "linear", "trainable": true, "data_format": "channels_last", "filters": 8, "padding": "same", "strides": [1, 1], "dilation_rate": [1, 1], "kernel_regularizer": null, "bias_initializer": {"class_name": "Zeros", "config": {}}, "use_bias": true, "activity_regularizer": null, "kernel_size": [1, 1]}, "inbound_nodes": [[["0_lf8_x1_residual", 0, 0, {}]]], "name": "0_lf8_x2_conv_1x1_x1"}, {"class_name": "LeakyReLU", "config": {"dtype": "float32", "trainable": true, "name": "leaky_re_lu_31", "alpha": 0.10000000149011612}, "inbound_nodes": [[["0_lf8_x2_conv_1x1_x1", 0, 0, {}]]], "name": "leaky_re_lu_31"}, {"class_name": "BatchNormalization", "config": {"beta_constraint": null, "gamma_initializer": {"class_name": "Ones", "config": {}}, "moving_mean_initializer": {"class_name": "Zeros", "config": {}}, "name": "batch_normalization_29", "dtype": "float32", "trainable": true, "moving_variance_initializer": {"class_name": "Ones", "config": {}}, "beta_initializer": {"class_name": "Zeros", "config": {}}, "scale": true, "axis": -1, "epsilon": 0.001, "gamma_constraint": null, "gamma_regularizer": null, "beta_regularizer": null, "momentum": 0.99, "center": true}, "inbound_nodes": [[["leaky_re_lu_31", 0, 0, {}]]], "name": "batch_normalization_29"}, {"class_name": "Conv2D", "config": {"kernel_initializer": {"class_name": "VarianceScaling", "config": {"distribution": "uniform", "scale": 1.0, "seed": null, "mode": "fan_avg"}}, "name": "0_lf8_x2_conv_3x3_x2", "kernel_constraint": null, "bias_regularizer": null, "bias_constraint": null, "dtype": "float32", "activation": "linear", "trainable": true, "data_format": "channels_last", "filters": 8, "padding": "same", "strides": [1, 1], "dilation_rate": [1, 1], "kernel_regularizer": null, "bias_initializer": {"class_name": "Zeros", "config": {}}, "use_bias": true, "activity_regularizer": null, "kernel_size": [3, 3]}, "inbound_nodes": [[["batch_normalization_29", 0, 0, {}]]], "name": "0_lf8_x2_conv_3x3_x2"}, {"class_name": "LeakyReLU", "config": {"dtype": "float32", "trainable": true, "name": "leaky_re_lu_32", "alpha": 0.10000000149011612}, "inbound_nodes": [[["0_lf8_x2_conv_3x3_x2", 0, 0, {}]]], "name": "leaky_re_lu_32"}, {"class_name": "BatchNormalization", "config": {"beta_constraint": null, "gamma_initializer": {"class_name": "Ones", "config": {}}, "moving_mean_initializer": {"class_name": "Zeros", "config": {}}, "name": "batch_normalization_30", "dtype": "float32", "trainable": true, "moving_variance_initializer": {"class_name": "Ones", "config": {}}, "beta_initializer": {"class_name": "Zeros", "config": {}}, "scale": true, "axis": -1, "epsilon": 0.001, "gamma_constraint": null, "gamma_regularizer": null, "beta_regularizer": null, "momentum": 0.99, "center": true}, "inbound_nodes": [[["leaky_re_lu_32", 0, 0, {}]]], "name": "batch_normalization_30"}, {"class_name": "Conv2D", "config": {"kernel_initializer": {"class_name": "VarianceScaling", "config": {"distribution": "uniform", "scale": 1.0, "seed": null, "mode": "fan_avg"}}, "name": "0_lf8_x2_conv_1x1_x3", "kernel_constraint": null, "bias_regularizer": null, "bias_constraint": null, "dtype": "float32", "activation": "linear", "trainable": true, "data_format": "channels_last", "filters": 16, "padding": "same", "strides": [1, 1], "dilation_rate": [1, 1], "kernel_regularizer": null, "bias_initializer": {"class_name": "Zeros", "config": {}}, "use_bias": true, "activity_regularizer": null, "kernel_size": [1, 1]}, "inbound_nodes": [[["batch_normalization_30", 0, 0, {}]]], "name": "0_lf8_x2_conv_1x1_x3"}, {"class_name": "LeakyReLU", "config": {"dtype": "float32", "trainable": true, "name": "leaky_re_lu_33", "alpha": 0.10000000149011612}, "inbound_nodes": [[["0_lf8_x2_conv_1x1_x3", 0, 0, {}]]], "name": "leaky_re_lu_33"}, {"class_name": "BatchNormalization", "config": {"beta_constraint": null, "gamma_initializer": {"class_name": "Ones", "config": {}}, "moving_mean_initializer": {"class_name": "Zeros", "config": {}}, "name": "batch_normalization_31", "dtype": "float32", "trainable": true, "moving_variance_initializer": {"class_name": "Ones", "config": {}}, "beta_initializer": {"class_name": "Zeros", "config": {}}, "scale": true, "axis": -1, "epsilon": 0.001, "gamma_constraint": null, "gamma_regularizer": null, "beta_regularizer": null, "momentum": 0.99, "center": true}, "inbound_nodes": [[["leaky_re_lu_33", 0, 0, {}]]], "name": "batch_normalization_31"}, {"class_name": "Add", "config": {"dtype": "float32", "trainable": true, "name": "0_lf8_x2_residual"}, "inbound_nodes": [[["0_lf8_x1_residual", 0, 0, {}], ["batch_normalization_31", 0, 0, {}]]], "name": "0_lf8_x2_residual"}, {"class_name": "Conv2D", "config": {"kernel_initializer": {"class_name": "VarianceScaling", "config": {"distribution": "uniform", "scale": 1.0, "seed": null, "mode": "fan_avg"}}, "name": "0_lf8_x3_conv_1x1_x1", "kernel_constraint": null, "bias_regularizer": null, "bias_constraint": null, "dtype": "float32", "activation": "linear", "trainable": true, "data_format": "channels_last", "filters": 8, "padding": "same", "strides": [1, 1], "dilation_rate": [1, 1], "kernel_regularizer": null, "bias_initializer": {"class_name": "Zeros", "config": {}}, "use_bias": true, "activity_regularizer": null, "kernel_size": [1, 1]}, "inbound_nodes": [[["0_lf8_x2_residual", 0, 0, {}]]], "name": "0_lf8_x3_conv_1x1_x1"}, {"class_name": "Conv2D", "config": {"kernel_initializer": {"class_name": "VarianceScaling", "config": {"distribution": "uniform", "scale": 1.0, "seed": null, "mode": "fan_avg"}}, "name": "0_lf8_conv_1x1_x1", "kernel_constraint": null, "bias_regularizer": null, "bias_constraint": null, "dtype": "float32", "activation": "linear", "trainable": true, "data_format": "channels_last", "filters": 8, "padding": "same", "strides": [1, 1], "dilation_rate": [1, 1], "kernel_regularizer": null, "bias_initializer": {"class_name": "Zeros", "config": {}}, "use_bias": true, "activity_regularizer": null, "kernel_size": [1, 1]}, "inbound_nodes": [[["hg0_l8_residual", 0, 0, {}]]], "name": "0_lf8_conv_1x1_x1"}, {"class_name": "LeakyReLU", "config": {"dtype": "float32", "trainable": true, "name": "leaky_re_lu_34", "alpha": 0.10000000149011612}, "inbound_nodes": [[["0_lf8_x3_conv_1x1_x1", 0, 0, {}]]], "name": "leaky_re_lu_34"}, {"class_name": "LeakyReLU", "config": {"dtype": "float32", "trainable": true, "name": "leaky_re_lu_25", "alpha": 0.10000000149011612}, "inbound_nodes": [[["0_lf8_conv_1x1_x1", 0, 0, {}]]], "name": "leaky_re_lu_25"}, {"class_name": "Conv2D", "config": {"kernel_initializer": {"class_name": "VarianceScaling", "config": {"distribution": "uniform", "scale": 1.0, "seed": null, "mode": "fan_avg"}}, "name": "hg0_rf4_connect_conv_1x1_x1", "kernel_constraint": null, "bias_regularizer": null, "bias_constraint": null, "dtype": "float32", "activation": "linear", "trainable": true, "data_format": "channels_last", "filters": 8, "padding": "same", "strides": [1, 1], "dilation_rate": [1, 1], "kernel_regularizer": null, "bias_initializer": {"class_name": "Zeros", "config": {}}, "use_bias": true, "activity_regularizer": null, "kernel_size": [1, 1]}, "inbound_nodes": [[["hg0_l4_residual", 0, 0, {}]]], "name": "hg0_rf4_connect_conv_1x1_x1"}, {"class_name": "BatchNormalization", "config": {"beta_constraint": null, "gamma_initializer": {"class_name": "Ones", "config": {}}, "moving_mean_initializer": {"class_name": "Zeros", "config": {}}, "name": "batch_normalization_32", "dtype": "float32", "trainable": true, "moving_variance_initializer": {"class_name": "Ones", "config": {}}, "beta_initializer": {"class_name": "Zeros", "config": {}}, "scale": true, "axis": -1, "epsilon": 0.001, "gamma_constraint": null, "gamma_regularizer": null, "beta_regularizer": null, "momentum": 0.99, "center": true}, "inbound_nodes": [[["leaky_re_lu_34", 0, 0, {}]]], "name": "batch_normalization_32"}, {"class_name": "BatchNormalization", "config": {"beta_constraint": null, "gamma_initializer": {"class_name": "Ones", "config": {}}, "moving_mean_initializer": {"class_name": "Zeros", "config": {}}, "name": "batch_normalization_23", "dtype": "float32", "trainable": true, "moving_variance_initializer": {"class_name": "Ones", "config": {}}, "beta_initializer": {"class_name": "Zeros", "config": {}}, "scale": true, "axis": -1, "epsilon": 0.001, "gamma_constraint": null, "gamma_regularizer": null, "beta_regularizer": null, "momentum": 0.99, "center": true}, "inbound_nodes": [[["leaky_re_lu_25", 0, 0, {}]]], "name": "batch_normalization_23"}, {"class_name": "LeakyReLU", "config": {"dtype": "float32", "trainable": true, "name": "leaky_re_lu_37", "alpha": 0.10000000149011612}, "inbound_nodes": [[["hg0_rf4_connect_conv_1x1_x1", 0, 0, {}]]], "name": "leaky_re_lu_37"}, {"class_name": "Conv2D", "config": {"kernel_initializer": {"class_name": "VarianceScaling", "config": {"distribution": "uniform", "scale": 1.0, "seed": null, "mode": "fan_avg"}}, "name": "0_lf8_x3_conv_3x3_x2", "kernel_constraint": null, "bias_regularizer": null, "bias_constraint": null, "dtype": "float32", "activation": "linear", "trainable": true, "data_format": "channels_last", "filters": 8, "padding": "same", "strides": [1, 1], "dilation_rate": [1, 1], "kernel_regularizer": null, "bias_initializer": {"class_name": "Zeros", "config": {}}, "use_bias": true, "activity_regularizer": null, "kernel_size": [3, 3]}, "inbound_nodes": [[["batch_normalization_32", 0, 0, {}]]], "name": "0_lf8_x3_conv_3x3_x2"}, {"class_name": "Conv2D", "config": {"kernel_initializer": {"class_name": "VarianceScaling", "config": {"distribution": "uniform", "scale": 1.0, "seed": null, "mode": "fan_avg"}}, "name": "0_lf8_conv_3x3_x2", "kernel_constraint": null, "bias_regularizer": null, "bias_constraint": null, "dtype": "float32", "activation": "linear", "trainable": true, "data_format": "channels_last", "filters": 8, "padding": "same", "strides": [1, 1], "dilation_rate": [1, 1], "kernel_regularizer": null, "bias_initializer": {"class_name": "Zeros", "config": {}}, "use_bias": true, "activity_regularizer": null, "kernel_size": [3, 3]}, "inbound_nodes": [[["batch_normalization_23", 0, 0, {}]]], "name": "0_lf8_conv_3x3_x2"}, {"class_name": "BatchNormalization", "config": {"beta_constraint": null, "gamma_initializer": {"class_name": "Ones", "config": {}}, "moving_mean_initializer": {"class_name": "Zeros", "config": {}}, "name": "batch_normalization_35", "dtype": "float32", "trainable": true, "moving_variance_initializer": {"class_name": "Ones", "config": {}}, "beta_initializer": {"class_name": "Zeros", "config": {}}, "scale": true, "axis": -1, "epsilon": 0.001, "gamma_constraint": null, "gamma_regularizer": null, "beta_regularizer": null, "momentum": 0.99, "center": true}, "inbound_nodes": [[["leaky_re_lu_37", 0, 0, {}]]], "name": "batch_normalization_35"}, {"class_name": "LeakyReLU", "config": {"dtype": "float32", "trainable": true, "name": "leaky_re_lu_35", "alpha": 0.10000000149011612}, "inbound_nodes": [[["0_lf8_x3_conv_3x3_x2", 0, 0, {}]]], "name": "leaky_re_lu_35"}, {"class_name": "LeakyReLU", "config": {"dtype": "float32", "trainable": true, "name": "leaky_re_lu_26", "alpha": 0.10000000149011612}, "inbound_nodes": [[["0_lf8_conv_3x3_x2", 0, 0, {}]]], "name": "leaky_re_lu_26"}, {"class_name": "Conv2D", "config": {"kernel_initializer": {"class_name": "VarianceScaling", "config": {"distribution": "uniform", "scale": 1.0, "seed": null, "mode": "fan_avg"}}, "name": "hg0_rf4_connect_conv_3x3_x2", "kernel_constraint": null, "bias_regularizer": null, "bias_constraint": null, "dtype": "float32", "activation": "linear", "trainable": true, "data_format": "channels_last", "filters": 8, "padding": "same", "strides": [1, 1], "dilation_rate": [1, 1], "kernel_regularizer": null, "bias_initializer": {"class_name": "Zeros", "config": {}}, "use_bias": true, "activity_regularizer": null, "kernel_size": [3, 3]}, "inbound_nodes": [[["batch_normalization_35", 0, 0, {}]]], "name": "hg0_rf4_connect_conv_3x3_x2"}, {"class_name": "BatchNormalization", "config": {"beta_constraint": null, "gamma_initializer": {"class_name": "Ones", "config": {}}, "moving_mean_initializer": {"class_name": "Zeros", "config": {}}, "name": "batch_normalization_33", "dtype": "float32", "trainable": true, "moving_variance_initializer": {"class_name": "Ones", "config": {}}, "beta_initializer": {"class_name": "Zeros", "config": {}}, "scale": true, "axis": -1, "epsilon": 0.001, "gamma_constraint": null, "gamma_regularizer": null, "beta_regularizer": null, "momentum": 0.99, "center": true}, "inbound_nodes": [[["leaky_re_lu_35", 0, 0, {}]]], "name": "batch_normalization_33"}, {"class_name": "BatchNormalization", "config": {"beta_constraint": null, "gamma_initializer": {"class_name": "Ones", "config": {}}, "moving_mean_initializer": {"class_name": "Zeros", "config": {}}, "name": "batch_normalization_24", "dtype": "float32", "trainable": true, "moving_variance_initializer": {"class_name": "Ones", "config": {}}, "beta_initializer": {"class_name": "Zeros", "config": {}}, "scale": true, "axis": -1, "epsilon": 0.001, "gamma_constraint": null, "gamma_regularizer": null, "beta_regularizer": null, "momentum": 0.99, "center": true}, "inbound_nodes": [[["leaky_re_lu_26", 0, 0, {}]]], "name": "batch_normalization_24"}, {"class_name": "LeakyReLU", "config": {"dtype": "float32", "trainable": true, "name": "leaky_re_lu_38", "alpha": 0.10000000149011612}, "inbound_nodes": [[["hg0_rf4_connect_conv_3x3_x2", 0, 0, {}]]], "name": "leaky_re_lu_38"}, {"class_name": "Conv2D", "config": {"kernel_initializer": {"class_name": "VarianceScaling", "config": {"distribution": "uniform", "scale": 1.0, "seed": null, "mode": "fan_avg"}}, "name": "0_lf8_x3_conv_1x1_x3", "kernel_constraint": null, "bias_regularizer": null, "bias_constraint": null, "dtype": "float32", "activation": "linear", "trainable": true, "data_format": "channels_last", "filters": 16, "padding": "same", "strides": [1, 1], "dilation_rate": [1, 1], "kernel_regularizer": null, "bias_initializer": {"class_name": "Zeros", "config": {}}, "use_bias": true, "activity_regularizer": null, "kernel_size": [1, 1]}, "inbound_nodes": [[["batch_normalization_33", 0, 0, {}]]], "name": "0_lf8_x3_conv_1x1_x3"}, {"class_name": "Conv2D", "config": {"kernel_initializer": {"class_name": "VarianceScaling", "config": {"distribution": "uniform", "scale": 1.0, "seed": null, "mode": "fan_avg"}}, "name": "0_lf8_conv_1x1_x3", "kernel_constraint": null, "bias_regularizer": null, "bias_constraint": null, "dtype": "float32", "activation": "linear", "trainable": true, "data_format": "channels_last", "filters": 16, "padding": "same", "strides": [1, 1], "dilation_rate": [1, 1], "kernel_regularizer": null, "bias_initializer": {"class_name": "Zeros", "config": {}}, "use_bias": true, "activity_regularizer": null, "kernel_size": [1, 1]}, "inbound_nodes": [[["batch_normalization_24", 0, 0, {}]]], "name": "0_lf8_conv_1x1_x3"}, {"class_name": "BatchNormalization", "config": {"beta_constraint": null, "gamma_initializer": {"class_name": "Ones", "config": {}}, "moving_mean_initializer": {"class_name": "Zeros", "config": {}}, "name": "batch_normalization_36", "dtype": "float32", "trainable": true, "moving_variance_initializer": {"class_name": "Ones", "config": {}}, "beta_initializer": {"class_name": "Zeros", "config": {}}, "scale": true, "axis": -1, "epsilon": 0.001, "gamma_constraint": null, "gamma_regularizer": null, "beta_regularizer": null, "momentum": 0.99, "center": true}, "inbound_nodes": [[["leaky_re_lu_38", 0, 0, {}]]], "name": "batch_normalization_36"}, {"class_name": "LeakyReLU", "config": {"dtype": "float32", "trainable": true, "name": "leaky_re_lu_36", "alpha": 0.10000000149011612}, "inbound_nodes": [[["0_lf8_x3_conv_1x1_x3", 0, 0, {}]]], "name": "leaky_re_lu_36"}, {"class_name": "LeakyReLU", "config": {"dtype": "float32", "trainable": true, "name": "leaky_re_lu_27", "alpha": 0.10000000149011612}, "inbound_nodes": [[["0_lf8_conv_1x1_x3", 0, 0, {}]]], "name": "leaky_re_lu_27"}, {"class_name": "Conv2D", "config": {"kernel_initializer": {"class_name": "VarianceScaling", "config": {"distribution": "uniform", "scale": 1.0, "seed": null, "mode": "fan_avg"}}, "name": "hg0_rf4_connect_conv_1x1_x3", "kernel_constraint": null, "bias_regularizer": null, "bias_constraint": null, "dtype": "float32", "activation": "linear", "trainable": true, "data_format": "channels_last", "filters": 16, "padding": "same", "strides": [1, 1], "dilation_rate": [1, 1], "kernel_regularizer": null, "bias_initializer": {"class_name": "Zeros", "config": {}}, "use_bias": true, "activity_regularizer": null, "kernel_size": [1, 1]}, "inbound_nodes": [[["batch_normalization_36", 0, 0, {}]]], "name": "hg0_rf4_connect_conv_1x1_x3"}, {"class_name": "BatchNormalization", "config": {"beta_constraint": null, "gamma_initializer": {"class_name": "Ones", "config": {}}, "moving_mean_initializer": {"class_name": "Zeros", "config": {}}, "name": "batch_normalization_34", "dtype": "float32", "trainable": true, "moving_variance_initializer": {"class_name": "Ones", "config": {}}, "beta_initializer": {"class_name": "Zeros", "config": {}}, "scale": true, "axis": -1, "epsilon": 0.001, "gamma_constraint": null, "gamma_regularizer": null, "beta_regularizer": null, "momentum": 0.99, "center": true}, "inbound_nodes": [[["leaky_re_lu_36", 0, 0, {}]]], "name": "batch_normalization_34"}, {"class_name": "BatchNormalization", "config": {"beta_constraint": null, "gamma_initializer": {"class_name": "Ones", "config": {}}, "moving_mean_initializer": {"class_name": "Zeros", "config": {}}, "name": "batch_normalization_25", "dtype": "float32", "trainable": true, "moving_variance_initializer": {"class_name": "Ones", "config": {}}, "beta_initializer": {"class_name": "Zeros", "config": {}}, "scale": true, "axis": -1, "epsilon": 0.001, "gamma_constraint": null, "gamma_regularizer": null, "beta_regularizer": null, "momentum": 0.99, "center": true}, "inbound_nodes": [[["leaky_re_lu_27", 0, 0, {}]]], "name": "batch_normalization_25"}, {"class_name": "LeakyReLU", "config": {"dtype": "float32", "trainable": true, "name": "leaky_re_lu_39", "alpha": 0.10000000149011612}, "inbound_nodes": [[["hg0_rf4_connect_conv_1x1_x3", 0, 0, {}]]], "name": "leaky_re_lu_39"}, {"class_name": "Add", "config": {"dtype": "float32", "trainable": true, "name": "0_lf8_x3_residual"}, "inbound_nodes": [[["0_lf8_x2_residual", 0, 0, {}], ["batch_normalization_34", 0, 0, {}]]], "name": "0_lf8_x3_residual"}, {"class_name": "Add", "config": {"dtype": "float32", "trainable": true, "name": "0_lf8_residual"}, "inbound_nodes": [[["hg0_l8_residual", 0, 0, {}], ["batch_normalization_25", 0, 0, {}]]], "name": "0_lf8_residual"}, {"class_name": "BatchNormalization", "config": {"beta_constraint": null, "gamma_initializer": {"class_name": "Ones", "config": {}}, "moving_mean_initializer": {"class_name": "Zeros", "config": {}}, "name": "batch_normalization_37", "dtype": "float32", "trainable": true, "moving_variance_initializer": {"class_name": "Ones", "config": {}}, "beta_initializer": {"class_name": "Zeros", "config": {}}, "scale": true, "axis": -1, "epsilon": 0.001, "gamma_constraint": null, "gamma_regularizer": null, "beta_regularizer": null, "momentum": 0.99, "center": true}, "inbound_nodes": [[["leaky_re_lu_39", 0, 0, {}]]], "name": "batch_normalization_37"}, {"class_name": "Add", "config": {"dtype": "float32", "trainable": true, "name": "add_1"}, "inbound_nodes": [[["0_lf8_x3_residual", 0, 0, {}], ["0_lf8_residual", 0, 0, {}]]], "name": "add_1"}, {"class_name": "Add", "config": {"dtype": "float32", "trainable": true, "name": "hg0_rf4_connect_residual"}, "inbound_nodes": [[["hg0_l4_residual", 0, 0, {}], ["batch_normalization_37", 0, 0, {}]]], "name": "hg0_rf4_connect_residual"}, {"class_name": "UpSampling2D", "config": {"name": "up_sampling2d_1", "dtype": "float32", "trainable": true, "data_format": "channels_last", "size": [2, 2], "interpolation": "nearest"}, "inbound_nodes": [[["add_1", 0, 0, {}]]], "name": "up_sampling2d_1"}, {"class_name": "Add", "config": {"dtype": "float32", "trainable": true, "name": "add_2"}, "inbound_nodes": [[["hg0_rf4_connect_residual", 0, 0, {}], ["up_sampling2d_1", 0, 0, {}]]], "name": "add_2"}, {"class_name": "Conv2D", "config": {"kernel_initializer": {"class_name": "VarianceScaling", "config": {"distribution": "uniform", "scale": 1.0, "seed": null, "mode": "fan_avg"}}, "name": "hg0_rf4_connect_conv_conv_1x1_x1", "kernel_constraint": null, "bias_regularizer": null, "bias_constraint": null, "dtype": "float32", "activation": "linear", "trainable": true, "data_format": "channels_last", "filters": 8, "padding": "same", "strides": [1, 1], "dilation_rate": [1, 1], "kernel_regularizer": null, "bias_initializer": {"class_name": "Zeros", "config": {}}, "use_bias": true, "activity_regularizer": null, "kernel_size": [1, 1]}, "inbound_nodes": [[["add_2", 0, 0, {}]]], "name": "hg0_rf4_connect_conv_conv_1x1_x1"}, {"class_name": "Conv2D", "config": {"kernel_initializer": {"class_name": "VarianceScaling", "config": {"distribution": "uniform", "scale": 1.0, "seed": null, "mode": "fan_avg"}}, "name": "hg0_rf2_connect_conv_1x1_x1", "kernel_constraint": null, "bias_regularizer": null, "bias_constraint": null, "dtype": "float32", "activation": "linear", "trainable": true, "data_format": "channels_last", "filters": 8, "padding": "same", "strides": [1, 1], "dilation_rate": [1, 1], "kernel_regularizer": null, "bias_initializer": {"class_name": "Zeros", "config": {}}, "use_bias": true, "activity_regularizer": null, "kernel_size": [1, 1]}, "inbound_nodes": [[["hg0_l2_residual", 0, 0, {}]]], "name": "hg0_rf2_connect_conv_1x1_x1"}, {"class_name": "LeakyReLU", "config": {"dtype": "float32", "trainable": true, "name": "leaky_re_lu_40", "alpha": 0.10000000149011612}, "inbound_nodes": [[["hg0_rf4_connect_conv_conv_1x1_x1", 0, 0, {}]]], "name": "leaky_re_lu_40"}, {"class_name": "LeakyReLU", "config": {"dtype": "float32", "trainable": true, "name": "leaky_re_lu_43", "alpha": 0.10000000149011612}, "inbound_nodes": [[["hg0_rf2_connect_conv_1x1_x1", 0, 0, {}]]], "name": "leaky_re_lu_43"}, {"class_name": "BatchNormalization", "config": {"beta_constraint": null, "gamma_initializer": {"class_name": "Ones", "config": {}}, "moving_mean_initializer": {"class_name": "Zeros", "config": {}}, "name": "batch_normalization_38", "dtype": "float32", "trainable": true, "moving_variance_initializer": {"class_name": "Ones", "config": {}}, "beta_initializer": {"class_name": "Zeros", "config": {}}, "scale": true, "axis": -1, "epsilon": 0.001, "gamma_constraint": null, "gamma_regularizer": null, "beta_regularizer": null, "momentum": 0.99, "center": true}, "inbound_nodes": [[["leaky_re_lu_40", 0, 0, {}]]], "name": "batch_normalization_38"}, {"class_name": "BatchNormalization", "config": {"beta_constraint": null, "gamma_initializer": {"class_name": "Ones", "config": {}}, "moving_mean_initializer": {"class_name": "Zeros", "config": {}}, "name": "batch_normalization_41", "dtype": "float32", "trainable": true, "moving_variance_initializer": {"class_name": "Ones", "config": {}}, "beta_initializer": {"class_name": "Zeros", "config": {}}, "scale": true, "axis": -1, "epsilon": 0.001, "gamma_constraint": null, "gamma_regularizer": null, "beta_regularizer": null, "momentum": 0.99, "center": true}, "inbound_nodes": [[["leaky_re_lu_43", 0, 0, {}]]], "name": "batch_normalization_41"}, {"class_name": "Conv2D", "config": {"kernel_initializer": {"class_name": "VarianceScaling", "config": {"distribution": "uniform", "scale": 1.0, "seed": null, "mode": "fan_avg"}}, "name": "hg0_rf4_connect_conv_conv_3x3_x2", "kernel_constraint": null, "bias_regularizer": null, "bias_constraint": null, "dtype": "float32", "activation": "linear", "trainable": true, "data_format": "channels_last", "filters": 8, "padding": "same", "strides": [1, 1], "dilation_rate": [1, 1], "kernel_regularizer": null, "bias_initializer": {"class_name": "Zeros", "config": {}}, "use_bias": true, "activity_regularizer": null, "kernel_size": [3, 3]}, "inbound_nodes": [[["batch_normalization_38", 0, 0, {}]]], "name": "hg0_rf4_connect_conv_conv_3x3_x2"}, {"class_name": "Conv2D", "config": {"kernel_initializer": {"class_name": "VarianceScaling", "config": {"distribution": "uniform", "scale": 1.0, "seed": null, "mode": "fan_avg"}}, "name": "hg0_rf2_connect_conv_3x3_x2", "kernel_constraint": null, "bias_regularizer": null, "bias_constraint": null, "dtype": "float32", "activation": "linear", "trainable": true, "data_format": "channels_last", "filters": 8, "padding": "same", "strides": [1, 1], "dilation_rate": [1, 1], "kernel_regularizer": null, "bias_initializer": {"class_name": "Zeros", "config": {}}, "use_bias": true, "activity_regularizer": null, "kernel_size": [3, 3]}, "inbound_nodes": [[["batch_normalization_41", 0, 0, {}]]], "name": "hg0_rf2_connect_conv_3x3_x2"}, {"class_name": "LeakyReLU", "config": {"dtype": "float32", "trainable": true, "name": "leaky_re_lu_41", "alpha": 0.10000000149011612}, "inbound_nodes": [[["hg0_rf4_connect_conv_conv_3x3_x2", 0, 0, {}]]], "name": "leaky_re_lu_41"}, {"class_name": "LeakyReLU", "config": {"dtype": "float32", "trainable": true, "name": "leaky_re_lu_44", "alpha": 0.10000000149011612}, "inbound_nodes": [[["hg0_rf2_connect_conv_3x3_x2", 0, 0, {}]]], "name": "leaky_re_lu_44"}, {"class_name": "BatchNormalization", "config": {"beta_constraint": null, "gamma_initializer": {"class_name": "Ones", "config": {}}, "moving_mean_initializer": {"class_name": "Zeros", "config": {}}, "name": "batch_normalization_39", "dtype": "float32", "trainable": true, "moving_variance_initializer": {"class_name": "Ones", "config": {}}, "beta_initializer": {"class_name": "Zeros", "config": {}}, "scale": true, "axis": -1, "epsilon": 0.001, "gamma_constraint": null, "gamma_regularizer": null, "beta_regularizer": null, "momentum": 0.99, "center": true}, "inbound_nodes": [[["leaky_re_lu_41", 0, 0, {}]]], "name": "batch_normalization_39"}, {"class_name": "BatchNormalization", "config": {"beta_constraint": null, "gamma_initializer": {"class_name": "Ones", "config": {}}, "moving_mean_initializer": {"class_name": "Zeros", "config": {}}, "name": "batch_normalization_42", "dtype": "float32", "trainable": true, "moving_variance_initializer": {"class_name": "Ones", "config": {}}, "beta_initializer": {"class_name": "Zeros", "config": {}}, "scale": true, "axis": -1, "epsilon": 0.001, "gamma_constraint": null, "gamma_regularizer": null, "beta_regularizer": null, "momentum": 0.99, "center": true}, "inbound_nodes": [[["leaky_re_lu_44", 0, 0, {}]]], "name": "batch_normalization_42"}, {"class_name": "Conv2D", "config": {"kernel_initializer": {"class_name": "VarianceScaling", "config": {"distribution": "uniform", "scale": 1.0, "seed": null, "mode": "fan_avg"}}, "name": "hg0_rf4_connect_conv_conv_1x1_x3", "kernel_constraint": null, "bias_regularizer": null, "bias_constraint": null, "dtype": "float32", "activation": "linear", "trainable": true, "data_format": "channels_last", "filters": 16, "padding": "same", "strides": [1, 1], "dilation_rate": [1, 1], "kernel_regularizer": null, "bias_initializer": {"class_name": "Zeros", "config": {}}, "use_bias": true, "activity_regularizer": null, "kernel_size": [1, 1]}, "inbound_nodes": [[["batch_normalization_39", 0, 0, {}]]], "name": "hg0_rf4_connect_conv_conv_1x1_x3"}, {"class_name": "Conv2D", "config": {"kernel_initializer": {"class_name": "VarianceScaling", "config": {"distribution": "uniform", "scale": 1.0, "seed": null, "mode": "fan_avg"}}, "name": "hg0_rf2_connect_conv_1x1_x3", "kernel_constraint": null, "bias_regularizer": null, "bias_constraint": null, "dtype": "float32", "activation": "linear", "trainable": true, "data_format": "channels_last", "filters": 16, "padding": "same", "strides": [1, 1], "dilation_rate": [1, 1], "kernel_regularizer": null, "bias_initializer": {"class_name": "Zeros", "config": {}}, "use_bias": true, "activity_regularizer": null, "kernel_size": [1, 1]}, "inbound_nodes": [[["batch_normalization_42", 0, 0, {}]]], "name": "hg0_rf2_connect_conv_1x1_x3"}, {"class_name": "LeakyReLU", "config": {"dtype": "float32", "trainable": true, "name": "leaky_re_lu_42", "alpha": 0.10000000149011612}, "inbound_nodes": [[["hg0_rf4_connect_conv_conv_1x1_x3", 0, 0, {}]]], "name": "leaky_re_lu_42"}, {"class_name": "LeakyReLU", "config": {"dtype": "float32", "trainable": true, "name": "leaky_re_lu_45", "alpha": 0.10000000149011612}, "inbound_nodes": [[["hg0_rf2_connect_conv_1x1_x3", 0, 0, {}]]], "name": "leaky_re_lu_45"}, {"class_name": "BatchNormalization", "config": {"beta_constraint": null, "gamma_initializer": {"class_name": "Ones", "config": {}}, "moving_mean_initializer": {"class_name": "Zeros", "config": {}}, "name": "batch_normalization_40", "dtype": "float32", "trainable": true, "moving_variance_initializer": {"class_name": "Ones", "config": {}}, "beta_initializer": {"class_name": "Zeros", "config": {}}, "scale": true, "axis": -1, "epsilon": 0.001, "gamma_constraint": null, "gamma_regularizer": null, "beta_regularizer": null, "momentum": 0.99, "center": true}, "inbound_nodes": [[["leaky_re_lu_42", 0, 0, {}]]], "name": "batch_normalization_40"}, {"class_name": "BatchNormalization", "config": {"beta_constraint": null, "gamma_initializer": {"class_name": "Ones", "config": {}}, "moving_mean_initializer": {"class_name": "Zeros", "config": {}}, "name": "batch_normalization_43", "dtype": "float32", "trainable": true, "moving_variance_initializer": {"class_name": "Ones", "config": {}}, "beta_initializer": {"class_name": "Zeros", "config": {}}, "scale": true, "axis": -1, "epsilon": 0.001, "gamma_constraint": null, "gamma_regularizer": null, "beta_regularizer": null, "momentum": 0.99, "center": true}, "inbound_nodes": [[["leaky_re_lu_45", 0, 0, {}]]], "name": "batch_normalization_43"}, {"class_name": "Add", "config": {"dtype": "float32", "trainable": true, "name": "hg0_rf4_connect_conv_residual"}, "inbound_nodes": [[["add_2", 0, 0, {}], ["batch_normalization_40", 0, 0, {}]]], "name": "hg0_rf4_connect_conv_residual"}, {"class_name": "Add", "config": {"dtype": "float32", "trainable": true, "name": "hg0_rf2_connect_residual"}, "inbound_nodes": [[["hg0_l2_residual", 0, 0, {}], ["batch_normalization_43", 0, 0, {}]]], "name": "hg0_rf2_connect_residual"}, {"class_name": "UpSampling2D", "config": {"name": "up_sampling2d_2", "dtype": "float32", "trainable": true, "data_format": "channels_last", "size": [2, 2], "interpolation": "nearest"}, "inbound_nodes": [[["hg0_rf4_connect_conv_residual", 0, 0, {}]]], "name": "up_sampling2d_2"}, {"class_name": "Add", "config": {"dtype": "float32", "trainable": true, "name": "add_3"}, "inbound_nodes": [[["hg0_rf2_connect_residual", 0, 0, {}], ["up_sampling2d_2", 0, 0, {}]]], "name": "add_3"}, {"class_name": "Conv2D", "config": {"kernel_initializer": {"class_name": "VarianceScaling", "config": {"distribution": "uniform", "scale": 1.0, "seed": null, "mode": "fan_avg"}}, "name": "hg0_rf2_connect_conv_conv_1x1_x1", "kernel_constraint": null, "bias_regularizer": null, "bias_constraint": null, "dtype": "float32", "activation": "linear", "trainable": true, "data_format": "channels_last", "filters": 8, "padding": "same", "strides": [1, 1], "dilation_rate": [1, 1], "kernel_regularizer": null, "bias_initializer": {"class_name": "Zeros", "config": {}}, "use_bias": true, "activity_regularizer": null, "kernel_size": [1, 1]}, "inbound_nodes": [[["add_3", 0, 0, {}]]], "name": "hg0_rf2_connect_conv_conv_1x1_x1"}, {"class_name": "Conv2D", "config": {"kernel_initializer": {"class_name": "VarianceScaling", "config": {"distribution": "uniform", "scale": 1.0, "seed": null, "mode": "fan_avg"}}, "name": "hg0_rf1_connect_conv_1x1_x1", "kernel_constraint": null, "bias_regularizer": null, "bias_constraint": null, "dtype": "float32", "activation": "linear", "trainable": true, "data_format": "channels_last", "filters": 8, "padding": "same", "strides": [1, 1], "dilation_rate": [1, 1], "kernel_regularizer": null, "bias_initializer": {"class_name": "Zeros", "config": {}}, "use_bias": true, "activity_regularizer": null, "kernel_size": [1, 1]}, "inbound_nodes": [[["hg0_l1_residual", 0, 0, {}]]], "name": "hg0_rf1_connect_conv_1x1_x1"}, {"class_name": "LeakyReLU", "config": {"dtype": "float32", "trainable": true, "name": "leaky_re_lu_46", "alpha": 0.10000000149011612}, "inbound_nodes": [[["hg0_rf2_connect_conv_conv_1x1_x1", 0, 0, {}]]], "name": "leaky_re_lu_46"}, {"class_name": "LeakyReLU", "config": {"dtype": "float32", "trainable": true, "name": "leaky_re_lu_49", "alpha": 0.10000000149011612}, "inbound_nodes": [[["hg0_rf1_connect_conv_1x1_x1", 0, 0, {}]]], "name": "leaky_re_lu_49"}, {"class_name": "BatchNormalization", "config": {"beta_constraint": null, "gamma_initializer": {"class_name": "Ones", "config": {}}, "moving_mean_initializer": {"class_name": "Zeros", "config": {}}, "name": "batch_normalization_44", "dtype": "float32", "trainable": true, "moving_variance_initializer": {"class_name": "Ones", "config": {}}, "beta_initializer": {"class_name": "Zeros", "config": {}}, "scale": true, "axis": -1, "epsilon": 0.001, "gamma_constraint": null, "gamma_regularizer": null, "beta_regularizer": null, "momentum": 0.99, "center": true}, "inbound_nodes": [[["leaky_re_lu_46", 0, 0, {}]]], "name": "batch_normalization_44"}, {"class_name": "BatchNormalization", "config": {"beta_constraint": null, "gamma_initializer": {"class_name": "Ones", "config": {}}, "moving_mean_initializer": {"class_name": "Zeros", "config": {}}, "name": "batch_normalization_47", "dtype": "float32", "trainable": true, "moving_variance_initializer": {"class_name": "Ones", "config": {}}, "beta_initializer": {"class_name": "Zeros", "config": {}}, "scale": true, "axis": -1, "epsilon": 0.001, "gamma_constraint": null, "gamma_regularizer": null, "beta_regularizer": null, "momentum": 0.99, "center": true}, "inbound_nodes": [[["leaky_re_lu_49", 0, 0, {}]]], "name": "batch_normalization_47"}, {"class_name": "Conv2D", "config": {"kernel_initializer": {"class_name": "VarianceScaling", "config": {"distribution": "uniform", "scale": 1.0, "seed": null, "mode": "fan_avg"}}, "name": "hg0_rf2_connect_conv_conv_3x3_x2", "kernel_constraint": null, "bias_regularizer": null, "bias_constraint": null, "dtype": "float32", "activation": "linear", "trainable": true, "data_format": "channels_last", "filters": 8, "padding": "same", "strides": [1, 1], "dilation_rate": [1, 1], "kernel_regularizer": null, "bias_initializer": {"class_name": "Zeros", "config": {}}, "use_bias": true, "activity_regularizer": null, "kernel_size": [3, 3]}, "inbound_nodes": [[["batch_normalization_44", 0, 0, {}]]], "name": "hg0_rf2_connect_conv_conv_3x3_x2"}, {"class_name": "Conv2D", "config": {"kernel_initializer": {"class_name": "VarianceScaling", "config": {"distribution": "uniform", "scale": 1.0, "seed": null, "mode": "fan_avg"}}, "name": "hg0_rf1_connect_conv_3x3_x2", "kernel_constraint": null, "bias_regularizer": null, "bias_constraint": null, "dtype": "float32", "activation": "linear", "trainable": true, "data_format": "channels_last", "filters": 8, "padding": "same", "strides": [1, 1], "dilation_rate": [1, 1], "kernel_regularizer": null, "bias_initializer": {"class_name": "Zeros", "config": {}}, "use_bias": true, "activity_regularizer": null, "kernel_size": [3, 3]}, "inbound_nodes": [[["batch_normalization_47", 0, 0, {}]]], "name": "hg0_rf1_connect_conv_3x3_x2"}, {"class_name": "LeakyReLU", "config": {"dtype": "float32", "trainable": true, "name": "leaky_re_lu_47", "alpha": 0.10000000149011612}, "inbound_nodes": [[["hg0_rf2_connect_conv_conv_3x3_x2", 0, 0, {}]]], "name": "leaky_re_lu_47"}, {"class_name": "LeakyReLU", "config": {"dtype": "float32", "trainable": true, "name": "leaky_re_lu_50", "alpha": 0.10000000149011612}, "inbound_nodes": [[["hg0_rf1_connect_conv_3x3_x2", 0, 0, {}]]], "name": "leaky_re_lu_50"}, {"class_name": "BatchNormalization", "config": {"beta_constraint": null, "gamma_initializer": {"class_name": "Ones", "config": {}}, "moving_mean_initializer": {"class_name": "Zeros", "config": {}}, "name": "batch_normalization_45", "dtype": "float32", "trainable": true, "moving_variance_initializer": {"class_name": "Ones", "config": {}}, "beta_initializer": {"class_name": "Zeros", "config": {}}, "scale": true, "axis": -1, "epsilon": 0.001, "gamma_constraint": null, "gamma_regularizer": null, "beta_regularizer": null, "momentum": 0.99, "center": true}, "inbound_nodes": [[["leaky_re_lu_47", 0, 0, {}]]], "name": "batch_normalization_45"}, {"class_name": "BatchNormalization", "config": {"beta_constraint": null, "gamma_initializer": {"class_name": "Ones", "config": {}}, "moving_mean_initializer": {"class_name": "Zeros", "config": {}}, "name": "batch_normalization_48", "dtype": "float32", "trainable": true, "moving_variance_initializer": {"class_name": "Ones", "config": {}}, "beta_initializer": {"class_name": "Zeros", "config": {}}, "scale": true, "axis": -1, "epsilon": 0.001, "gamma_constraint": null, "gamma_regularizer": null, "beta_regularizer": null, "momentum": 0.99, "center": true}, "inbound_nodes": [[["leaky_re_lu_50", 0, 0, {}]]], "name": "batch_normalization_48"}, {"class_name": "Conv2D", "config": {"kernel_initializer": {"class_name": "VarianceScaling", "config": {"distribution": "uniform", "scale": 1.0, "seed": null, "mode": "fan_avg"}}, "name": "hg0_rf2_connect_conv_conv_1x1_x3", "kernel_constraint": null, "bias_regularizer": null, "bias_constraint": null, "dtype": "float32", "activation": "linear", "trainable": true, "data_format": "channels_last", "filters": 16, "padding": "same", "strides": [1, 1], "dilation_rate": [1, 1], "kernel_regularizer": null, "bias_initializer": {"class_name": "Zeros", "config": {}}, "use_bias": true, "activity_regularizer": null, "kernel_size": [1, 1]}, "inbound_nodes": [[["batch_normalization_45", 0, 0, {}]]], "name": "hg0_rf2_connect_conv_conv_1x1_x3"}, {"class_name": "Conv2D", "config": {"kernel_initializer": {"class_name": "VarianceScaling", "config": {"distribution": "uniform", "scale": 1.0, "seed": null, "mode": "fan_avg"}}, "name": "hg0_rf1_connect_conv_1x1_x3", "kernel_constraint": null, "bias_regularizer": null, "bias_constraint": null, "dtype": "float32", "activation": "linear", "trainable": true, "data_format": "channels_last", "filters": 16, "padding": "same", "strides": [1, 1], "dilation_rate": [1, 1], "kernel_regularizer": null, "bias_initializer": {"class_name": "Zeros", "config": {}}, "use_bias": true, "activity_regularizer": null, "kernel_size": [1, 1]}, "inbound_nodes": [[["batch_normalization_48", 0, 0, {}]]], "name": "hg0_rf1_connect_conv_1x1_x3"}, {"class_name": "LeakyReLU", "config": {"dtype": "float32", "trainable": true, "name": "leaky_re_lu_48", "alpha": 0.10000000149011612}, "inbound_nodes": [[["hg0_rf2_connect_conv_conv_1x1_x3", 0, 0, {}]]], "name": "leaky_re_lu_48"}, {"class_name": "LeakyReLU", "config": {"dtype": "float32", "trainable": true, "name": "leaky_re_lu_51", "alpha": 0.10000000149011612}, "inbound_nodes": [[["hg0_rf1_connect_conv_1x1_x3", 0, 0, {}]]], "name": "leaky_re_lu_51"}, {"class_name": "BatchNormalization", "config": {"beta_constraint": null, "gamma_initializer": {"class_name": "Ones", "config": {}}, "moving_mean_initializer": {"class_name": "Zeros", "config": {}}, "name": "batch_normalization_46", "dtype": "float32", "trainable": true, "moving_variance_initializer": {"class_name": "Ones", "config": {}}, "beta_initializer": {"class_name": "Zeros", "config": {}}, "scale": true, "axis": -1, "epsilon": 0.001, "gamma_constraint": null, "gamma_regularizer": null, "beta_regularizer": null, "momentum": 0.99, "center": true}, "inbound_nodes": [[["leaky_re_lu_48", 0, 0, {}]]], "name": "batch_normalization_46"}, {"class_name": "BatchNormalization", "config": {"beta_constraint": null, "gamma_initializer": {"class_name": "Ones", "config": {}}, "moving_mean_initializer": {"class_name": "Zeros", "config": {}}, "name": "batch_normalization_49", "dtype": "float32", "trainable": true, "moving_variance_initializer": {"class_name": "Ones", "config": {}}, "beta_initializer": {"class_name": "Zeros", "config": {}}, "scale": true, "axis": -1, "epsilon": 0.001, "gamma_constraint": null, "gamma_regularizer": null, "beta_regularizer": null, "momentum": 0.99, "center": true}, "inbound_nodes": [[["leaky_re_lu_51", 0, 0, {}]]], "name": "batch_normalization_49"}, {"class_name": "Add", "config": {"dtype": "float32", "trainable": true, "name": "hg0_rf2_connect_conv_residual"}, "inbound_nodes": [[["add_3", 0, 0, {}], ["batch_normalization_46", 0, 0, {}]]], "name": "hg0_rf2_connect_conv_residual"}, {"class_name": "Add", "config": {"dtype": "float32", "trainable": true, "name": "hg0_rf1_connect_residual"}, "inbound_nodes": [[["hg0_l1_residual", 0, 0, {}], ["batch_normalization_49", 0, 0, {}]]], "name": "hg0_rf1_connect_residual"}, {"class_name": "UpSampling2D", "config": {"name": "up_sampling2d_3", "dtype": "float32", "trainable": true, "data_format": "channels_last", "size": [2, 2], "interpolation": "nearest"}, "inbound_nodes": [[["hg0_rf2_connect_conv_residual", 0, 0, {}]]], "name": "up_sampling2d_3"}, {"class_name": "Add", "config": {"dtype": "float32", "trainable": true, "name": "add_4"}, "inbound_nodes": [[["hg0_rf1_connect_residual", 0, 0, {}], ["up_sampling2d_3", 0, 0, {}]]], "name": "add_4"}, {"class_name": "Conv2D", "config": {"kernel_initializer": {"class_name": "VarianceScaling", "config": {"distribution": "uniform", "scale": 1.0, "seed": null, "mode": "fan_avg"}}, "name": "hg0_rf1_connect_conv_conv_1x1_x1", "kernel_constraint": null, "bias_regularizer": null, "bias_constraint": null, "dtype": "float32", "activation": "linear", "trainable": true, "data_format": "channels_last", "filters": 8, "padding": "same", "strides": [1, 1], "dilation_rate": [1, 1], "kernel_regularizer": null, "bias_initializer": {"class_name": "Zeros", "config": {}}, "use_bias": true, "activity_regularizer": null, "kernel_size": [1, 1]}, "inbound_nodes": [[["add_4", 0, 0, {}]]], "name": "hg0_rf1_connect_conv_conv_1x1_x1"}, {"class_name": "LeakyReLU", "config": {"dtype": "float32", "trainable": true, "name": "leaky_re_lu_52", "alpha": 0.10000000149011612}, "inbound_nodes": [[["hg0_rf1_connect_conv_conv_1x1_x1", 0, 0, {}]]], "name": "leaky_re_lu_52"}, {"class_name": "BatchNormalization", "config": {"beta_constraint": null, "gamma_initializer": {"class_name": "Ones", "config": {}}, "moving_mean_initializer": {"class_name": "Zeros", "config": {}}, "name": "batch_normalization_50", "dtype": "float32", "trainable": true, "moving_variance_initializer": {"class_name": "Ones", "config": {}}, "beta_initializer": {"class_name": "Zeros", "config": {}}, "scale": true, "axis": -1, "epsilon": 0.001, "gamma_constraint": null, "gamma_regularizer": null, "beta_regularizer": null, "momentum": 0.99, "center": true}, "inbound_nodes": [[["leaky_re_lu_52", 0, 0, {}]]], "name": "batch_normalization_50"}, {"class_name": "Conv2D", "config": {"kernel_initializer": {"class_name": "VarianceScaling", "config": {"distribution": "uniform", "scale": 1.0, "seed": null, "mode": "fan_avg"}}, "name": "hg0_rf1_connect_conv_conv_3x3_x2", "kernel_constraint": null, "bias_regularizer": null, "bias_constraint": null, "dtype": "float32", "activation": "linear", "trainable": true, "data_format": "channels_last", "filters": 8, "padding": "same", "strides": [1, 1], "dilation_rate": [1, 1], "kernel_regularizer": null, "bias_initializer": {"class_name": "Zeros", "config": {}}, "use_bias": true, "activity_regularizer": null, "kernel_size": [3, 3]}, "inbound_nodes": [[["batch_normalization_50", 0, 0, {}]]], "name": "hg0_rf1_connect_conv_conv_3x3_x2"}, {"class_name": "LeakyReLU", "config": {"dtype": "float32", "trainable": true, "name": "leaky_re_lu_53", "alpha": 0.10000000149011612}, "inbound_nodes": [[["hg0_rf1_connect_conv_conv_3x3_x2", 0, 0, {}]]], "name": "leaky_re_lu_53"}, {"class_name": "BatchNormalization", "config": {"beta_constraint": null, "gamma_initializer": {"class_name": "Ones", "config": {}}, "moving_mean_initializer": {"class_name": "Zeros", "config": {}}, "name": "batch_normalization_51", "dtype": "float32", "trainable": true, "moving_variance_initializer": {"class_name": "Ones", "config": {}}, "beta_initializer": {"class_name": "Zeros", "config": {}}, "scale": true, "axis": -1, "epsilon": 0.001, "gamma_constraint": null, "gamma_regularizer": null, "beta_regularizer": null, "momentum": 0.99, "center": true}, "inbound_nodes": [[["leaky_re_lu_53", 0, 0, {}]]], "name": "batch_normalization_51"}, {"class_name": "Conv2D", "config": {"kernel_initializer": {"class_name": "VarianceScaling", "config": {"distribution": "uniform", "scale": 1.0, "seed": null, "mode": "fan_avg"}}, "name": "hg0_rf1_connect_conv_conv_1x1_x3", "kernel_constraint": null, "bias_regularizer": null, "bias_constraint": null, "dtype": "float32", "activation": "linear", "trainable": true, "data_format": "channels_last", "filters": 16, "padding": "same", "strides": [1, 1], "dilation_rate": [1, 1], "kernel_regularizer": null, "bias_initializer": {"class_name": "Zeros", "config": {}}, "use_bias": true, "activity_regularizer": null, "kernel_size": [1, 1]}, "inbound_nodes": [[["batch_normalization_51", 0, 0, {}]]], "name": "hg0_rf1_connect_conv_conv_1x1_x3"}, {"class_name": "LeakyReLU", "config": {"dtype": "float32", "trainable": true, "name": "leaky_re_lu_54", "alpha": 0.10000000149011612}, "inbound_nodes": [[["hg0_rf1_connect_conv_conv_1x1_x3", 0, 0, {}]]], "name": "leaky_re_lu_54"}, {"class_name": "BatchNormalization", "config": {"beta_constraint": null, "gamma_initializer": {"class_name": "Ones", "config": {}}, "moving_mean_initializer": {"class_name": "Zeros", "config": {}}, "name": "batch_normalization_52", "dtype": "float32", "trainable": true, "moving_variance_initializer": {"class_name": "Ones", "config": {}}, "beta_initializer": {"class_name": "Zeros", "config": {}}, "scale": true, "axis": -1, "epsilon": 0.001, "gamma_constraint": null, "gamma_regularizer": null, "beta_regularizer": null, "momentum": 0.99, "center": true}, "inbound_nodes": [[["leaky_re_lu_54", 0, 0, {}]]], "name": "batch_normalization_52"}, {"class_name": "Add", "config": {"dtype": "float32", "trainable": true, "name": "hg0_rf1_connect_conv_residual"}, "inbound_nodes": [[["add_4", 0, 0, {}], ["batch_normalization_52", 0, 0, {}]]], "name": "hg0_rf1_connect_conv_residual"}, {"class_name": "Conv2D", "config": {"kernel_initializer": {"class_name": "VarianceScaling", "config": {"distribution": "uniform", "scale": 1.0, "seed": null, "mode": "fan_avg"}}, "name": "0_conv_1x1_x1", "kernel_constraint": null, "bias_regularizer": null, "bias_constraint": null, "dtype": "float32", "activation": "linear", "trainable": true, "data_format": "channels_last", "filters": 16, "padding": "same", "strides": [1, 1], "dilation_rate": [1, 1], "kernel_regularizer": null, "bias_initializer": {"class_name": "Zeros", "config": {}}, "use_bias": true, "activity_regularizer": null, "kernel_size": [1, 1]}, "inbound_nodes": [[["hg0_rf1_connect_conv_residual", 0, 0, {}]]], "name": "0_conv_1x1_x1"}, {"class_name": "LeakyReLU", "config": {"dtype": "float32", "trainable": true, "name": "leaky_re_lu_55", "alpha": 0.10000000149011612}, "inbound_nodes": [[["0_conv_1x1_x1", 0, 0, {}]]], "name": "leaky_re_lu_55"}, {"class_name": "BatchNormalization", "config": {"beta_constraint": null, "gamma_initializer": {"class_name": "Ones", "config": {}}, "moving_mean_initializer": {"class_name": "Zeros", "config": {}}, "name": "batch_normalization_53", "dtype": "float32", "trainable": true, "moving_variance_initializer": {"class_name": "Ones", "config": {}}, "beta_initializer": {"class_name": "Zeros", "config": {}}, "scale": true, "axis": -1, "epsilon": 0.001, "gamma_constraint": null, "gamma_regularizer": null, "beta_regularizer": null, "momentum": 0.99, "center": true}, "inbound_nodes": [[["leaky_re_lu_55", 0, 0, {}]]], "name": "batch_normalization_53"}, {"class_name": "Conv2D", "config": {"kernel_initializer": {"class_name": "VarianceScaling", "config": {"distribution": "uniform", "scale": 1.0, "seed": null, "mode": "fan_avg"}}, "name": "0_conv_1x1_parts", "kernel_constraint": null, "bias_regularizer": null, "bias_constraint": null, "dtype": "float32", "activation": "linear", "trainable": true, "data_format": "channels_last", "filters": 2, "padding": "same", "strides": [1, 1], "dilation_rate": [1, 1], "kernel_regularizer": null, "bias_initializer": {"class_name": "Zeros", "config": {}}, "use_bias": true, "activity_regularizer": null, "kernel_size": [1, 1]}, "inbound_nodes": [[["batch_normalization_53", 0, 0, {}]]], "name": "0_conv_1x1_parts"}, {"class_name": "Conv2D", "config": {"kernel_initializer": {"class_name": "VarianceScaling", "config": {"distribution": "uniform", "scale": 1.0, "seed": null, "mode": "fan_avg"}}, "name": "0_conv_1x1_x2", "kernel_constraint": null, "bias_regularizer": null, "bias_constraint": null, "dtype": "float32", "activation": "linear", "trainable": true, "data_format": "channels_last", "filters": 16, "padding": "same", "strides": [1, 1], "dilation_rate": [1, 1], "kernel_regularizer": null, "bias_initializer": {"class_name": "Zeros", "config": {}}, "use_bias": true, "activity_regularizer": null, "kernel_size": [1, 1]}, "inbound_nodes": [[["batch_normalization_53", 0, 0, {}]]], "name": "0_conv_1x1_x2"}, {"class_name": "Conv2D", "config": {"kernel_initializer": {"class_name": "VarianceScaling", "config": {"distribution": "uniform", "scale": 1.0, "seed": null, "mode": "fan_avg"}}, "name": "0_conv_1x1_x3", "kernel_constraint": null, "bias_regularizer": null, "bias_constraint": null, "dtype": "float32", "activation": "linear", "trainable": true, "data_format": "channels_last", "filters": 16, "padding": "same", "strides": [1, 1], "dilation_rate": [1, 1], "kernel_regularizer": null, "bias_initializer": {"class_name": "Zeros", "config": {}}, "use_bias": true, "activity_regularizer": null, "kernel_size": [1, 1]}, "inbound_nodes": [[["0_conv_1x1_parts", 0, 0, {}]]], "name": "0_conv_1x1_x3"}, {"class_name": "Add", "config": {"dtype": "float32", "trainable": true, "name": "add_5"}, "inbound_nodes": [[["0_conv_1x1_x2", 0, 0, {}], ["0_conv_1x1_x3", 0, 0, {}], ["front_residual_x3_residual", 0, 0, {}]]], "name": "add_5"}, {"class_name": "Conv2D", "config": {"kernel_initializer": {"class_name": "VarianceScaling", "config": {"distribution": "uniform", "scale": 1.0, "seed": null, "mode": "fan_avg"}}, "name": "hg1_l1_conv_1x1_x1", "kernel_constraint": null, "bias_regularizer": null, "bias_constraint": null, "dtype": "float32", "activation": "linear", "trainable": true, "data_format": "channels_last", "filters": 8, "padding": "same", "strides": [1, 1], "dilation_rate": [1, 1], "kernel_regularizer": null, "bias_initializer": {"class_name": "Zeros", "config": {}}, "use_bias": true, "activity_regularizer": null, "kernel_size": [1, 1]}, "inbound_nodes": [[["add_5", 0, 0, {}]]], "name": "hg1_l1_conv_1x1_x1"}, {"class_name": "LeakyReLU", "config": {"dtype": "float32", "trainable": true, "name": "leaky_re_lu_56", "alpha": 0.10000000149011612}, "inbound_nodes": [[["hg1_l1_conv_1x1_x1", 0, 0, {}]]], "name": "leaky_re_lu_56"}, {"class_name": "BatchNormalization", "config": {"beta_constraint": null, "gamma_initializer": {"class_name": "Ones", "config": {}}, "moving_mean_initializer": {"class_name": "Zeros", "config": {}}, "name": "batch_normalization_54", "dtype": "float32", "trainable": true, "moving_variance_initializer": {"class_name": "Ones", "config": {}}, "beta_initializer": {"class_name": "Zeros", "config": {}}, "scale": true, "axis": -1, "epsilon": 0.001, "gamma_constraint": null, "gamma_regularizer": null, "beta_regularizer": null, "momentum": 0.99, "center": true}, "inbound_nodes": [[["leaky_re_lu_56", 0, 0, {}]]], "name": "batch_normalization_54"}, {"class_name": "Conv2D", "config": {"kernel_initializer": {"class_name": "VarianceScaling", "config": {"distribution": "uniform", "scale": 1.0, "seed": null, "mode": "fan_avg"}}, "name": "hg1_l1_conv_3x3_x2", "kernel_constraint": null, "bias_regularizer": null, "bias_constraint": null, "dtype": "float32", "activation": "linear", "trainable": true, "data_format": "channels_last", "filters": 8, "padding": "same", "strides": [1, 1], "dilation_rate": [1, 1], "kernel_regularizer": null, "bias_initializer": {"class_name": "Zeros", "config": {}}, "use_bias": true, "activity_regularizer": null, "kernel_size": [3, 3]}, "inbound_nodes": [[["batch_normalization_54", 0, 0, {}]]], "name": "hg1_l1_conv_3x3_x2"}, {"class_name": "LeakyReLU", "config": {"dtype": "float32", "trainable": true, "name": "leaky_re_lu_57", "alpha": 0.10000000149011612}, "inbound_nodes": [[["hg1_l1_conv_3x3_x2", 0, 0, {}]]], "name": "leaky_re_lu_57"}, {"class_name": "BatchNormalization", "config": {"beta_constraint": null, "gamma_initializer": {"class_name": "Ones", "config": {}}, "moving_mean_initializer": {"class_name": "Zeros", "config": {}}, "name": "batch_normalization_55", "dtype": "float32", "trainable": true, "moving_variance_initializer": {"class_name": "Ones", "config": {}}, "beta_initializer": {"class_name": "Zeros", "config": {}}, "scale": true, "axis": -1, "epsilon": 0.001, "gamma_constraint": null, "gamma_regularizer": null, "beta_regularizer": null, "momentum": 0.99, "center": true}, "inbound_nodes": [[["leaky_re_lu_57", 0, 0, {}]]], "name": "batch_normalization_55"}, {"class_name": "Conv2D", "config": {"kernel_initializer": {"class_name": "VarianceScaling", "config": {"distribution": "uniform", "scale": 1.0, "seed": null, "mode": "fan_avg"}}, "name": "hg1_l1_conv_1x1_x3", "kernel_constraint": null, "bias_regularizer": null, "bias_constraint": null, "dtype": "float32", "activation": "linear", "trainable": true, "data_format": "channels_last", "filters": 16, "padding": "same", "strides": [1, 1], "dilation_rate": [1, 1], "kernel_regularizer": null, "bias_initializer": {"class_name": "Zeros", "config": {}}, "use_bias": true, "activity_regularizer": null, "kernel_size": [1, 1]}, "inbound_nodes": [[["batch_normalization_55", 0, 0, {}]]], "name": "hg1_l1_conv_1x1_x3"}, {"class_name": "LeakyReLU", "config": {"dtype": "float32", "trainable": true, "name": "leaky_re_lu_58", "alpha": 0.10000000149011612}, "inbound_nodes": [[["hg1_l1_conv_1x1_x3", 0, 0, {}]]], "name": "leaky_re_lu_58"}, {"class_name": "BatchNormalization", "config": {"beta_constraint": null, "gamma_initializer": {"class_name": "Ones", "config": {}}, "moving_mean_initializer": {"class_name": "Zeros", "config": {}}, "name": "batch_normalization_56", "dtype": "float32", "trainable": true, "moving_variance_initializer": {"class_name": "Ones", "config": {}}, "beta_initializer": {"class_name": "Zeros", "config": {}}, "scale": true, "axis": -1, "epsilon": 0.001, "gamma_constraint": null, "gamma_regularizer": null, "beta_regularizer": null, "momentum": 0.99, "center": true}, "inbound_nodes": [[["leaky_re_lu_58", 0, 0, {}]]], "name": "batch_normalization_56"}, {"class_name": "Add", "config": {"dtype": "float32", "trainable": true, "name": "hg1_l1_residual"}, "inbound_nodes": [[["add_5", 0, 0, {}], ["batch_normalization_56", 0, 0, {}]]], "name": "hg1_l1_residual"}, {"class_name": "MaxPooling2D", "config": {"name": "max_pooling2d_5", "dtype": "float32", "trainable": true, "data_format": "channels_last", "pool_size": [2, 2], "padding": "valid", "strides": [2, 2]}, "inbound_nodes": [[["hg1_l1_residual", 0, 0, {}]]], "name": "max_pooling2d_5"}, {"class_name": "Conv2D", "config": {"kernel_initializer": {"class_name": "VarianceScaling", "config": {"distribution": "uniform", "scale": 1.0, "seed": null, "mode": "fan_avg"}}, "name": "hg1_l2_conv_1x1_x1", "kernel_constraint": null, "bias_regularizer": null, "bias_constraint": null, "dtype": "float32", "activation": "linear", "trainable": true, "data_format": "channels_last", "filters": 8, "padding": "same", "strides": [1, 1], "dilation_rate": [1, 1], "kernel_regularizer": null, "bias_initializer": {"class_name": "Zeros", "config": {}}, "use_bias": true, "activity_regularizer": null, "kernel_size": [1, 1]}, "inbound_nodes": [[["max_pooling2d_5", 0, 0, {}]]], "name": "hg1_l2_conv_1x1_x1"}, {"class_name": "LeakyReLU", "config": {"dtype": "float32", "trainable": true, "name": "leaky_re_lu_59", "alpha": 0.10000000149011612}, "inbound_nodes": [[["hg1_l2_conv_1x1_x1", 0, 0, {}]]], "name": "leaky_re_lu_59"}, {"class_name": "BatchNormalization", "config": {"beta_constraint": null, "gamma_initializer": {"class_name": "Ones", "config": {}}, "moving_mean_initializer": {"class_name": "Zeros", "config": {}}, "name": "batch_normalization_57", "dtype": "float32", "trainable": true, "moving_variance_initializer": {"class_name": "Ones", "config": {}}, "beta_initializer": {"class_name": "Zeros", "config": {}}, "scale": true, "axis": -1, "epsilon": 0.001, "gamma_constraint": null, "gamma_regularizer": null, "beta_regularizer": null, "momentum": 0.99, "center": true}, "inbound_nodes": [[["leaky_re_lu_59", 0, 0, {}]]], "name": "batch_normalization_57"}, {"class_name": "Conv2D", "config": {"kernel_initializer": {"class_name": "VarianceScaling", "config": {"distribution": "uniform", "scale": 1.0, "seed": null, "mode": "fan_avg"}}, "name": "hg1_l2_conv_3x3_x2", "kernel_constraint": null, "bias_regularizer": null, "bias_constraint": null, "dtype": "float32", "activation": "linear", "trainable": true, "data_format": "channels_last", "filters": 8, "padding": "same", "strides": [1, 1], "dilation_rate": [1, 1], "kernel_regularizer": null, "bias_initializer": {"class_name": "Zeros", "config": {}}, "use_bias": true, "activity_regularizer": null, "kernel_size": [3, 3]}, "inbound_nodes": [[["batch_normalization_57", 0, 0, {}]]], "name": "hg1_l2_conv_3x3_x2"}, {"class_name": "LeakyReLU", "config": {"dtype": "float32", "trainable": true, "name": "leaky_re_lu_60", "alpha": 0.10000000149011612}, "inbound_nodes": [[["hg1_l2_conv_3x3_x2", 0, 0, {}]]], "name": "leaky_re_lu_60"}, {"class_name": "BatchNormalization", "config": {"beta_constraint": null, "gamma_initializer": {"class_name": "Ones", "config": {}}, "moving_mean_initializer": {"class_name": "Zeros", "config": {}}, "name": "batch_normalization_58", "dtype": "float32", "trainable": true, "moving_variance_initializer": {"class_name": "Ones", "config": {}}, "beta_initializer": {"class_name": "Zeros", "config": {}}, "scale": true, "axis": -1, "epsilon": 0.001, "gamma_constraint": null, "gamma_regularizer": null, "beta_regularizer": null, "momentum": 0.99, "center": true}, "inbound_nodes": [[["leaky_re_lu_60", 0, 0, {}]]], "name": "batch_normalization_58"}, {"class_name": "Conv2D", "config": {"kernel_initializer": {"class_name": "VarianceScaling", "config": {"distribution": "uniform", "scale": 1.0, "seed": null, "mode": "fan_avg"}}, "name": "hg1_l2_conv_1x1_x3", "kernel_constraint": null, "bias_regularizer": null, "bias_constraint": null, "dtype": "float32", "activation": "linear", "trainable": true, "data_format": "channels_last", "filters": 16, "padding": "same", "strides": [1, 1], "dilation_rate": [1, 1], "kernel_regularizer": null, "bias_initializer": {"class_name": "Zeros", "config": {}}, "use_bias": true, "activity_regularizer": null, "kernel_size": [1, 1]}, "inbound_nodes": [[["batch_normalization_58", 0, 0, {}]]], "name": "hg1_l2_conv_1x1_x3"}, {"class_name": "LeakyReLU", "config": {"dtype": "float32", "trainable": true, "name": "leaky_re_lu_61", "alpha": 0.10000000149011612}, "inbound_nodes": [[["hg1_l2_conv_1x1_x3", 0, 0, {}]]], "name": "leaky_re_lu_61"}, {"class_name": "BatchNormalization", "config": {"beta_constraint": null, "gamma_initializer": {"class_name": "Ones", "config": {}}, "moving_mean_initializer": {"class_name": "Zeros", "config": {}}, "name": "batch_normalization_59", "dtype": "float32", "trainable": true, "moving_variance_initializer": {"class_name": "Ones", "config": {}}, "beta_initializer": {"class_name": "Zeros", "config": {}}, "scale": true, "axis": -1, "epsilon": 0.001, "gamma_constraint": null, "gamma_regularizer": null, "beta_regularizer": null, "momentum": 0.99, "center": true}, "inbound_nodes": [[["leaky_re_lu_61", 0, 0, {}]]], "name": "batch_normalization_59"}, {"class_name": "Add", "config": {"dtype": "float32", "trainable": true, "name": "hg1_l2_residual"}, "inbound_nodes": [[["max_pooling2d_5", 0, 0, {}], ["batch_normalization_59", 0, 0, {}]]], "name": "hg1_l2_residual"}, {"class_name": "MaxPooling2D", "config": {"name": "max_pooling2d_6", "dtype": "float32", "trainable": true, "data_format": "channels_last", "pool_size": [2, 2], "padding": "valid", "strides": [2, 2]}, "inbound_nodes": [[["hg1_l2_residual", 0, 0, {}]]], "name": "max_pooling2d_6"}, {"class_name": "Conv2D", "config": {"kernel_initializer": {"class_name": "VarianceScaling", "config": {"distribution": "uniform", "scale": 1.0, "seed": null, "mode": "fan_avg"}}, "name": "hg1_l4_conv_1x1_x1", "kernel_constraint": null, "bias_regularizer": null, "bias_constraint": null, "dtype": "float32", "activation": "linear", "trainable": true, "data_format": "channels_last", "filters": 8, "padding": "same", "strides": [1, 1], "dilation_rate": [1, 1], "kernel_regularizer": null, "bias_initializer": {"class_name": "Zeros", "config": {}}, "use_bias": true, "activity_regularizer": null, "kernel_size": [1, 1]}, "inbound_nodes": [[["max_pooling2d_6", 0, 0, {}]]], "name": "hg1_l4_conv_1x1_x1"}, {"class_name": "LeakyReLU", "config": {"dtype": "float32", "trainable": true, "name": "leaky_re_lu_62", "alpha": 0.10000000149011612}, "inbound_nodes": [[["hg1_l4_conv_1x1_x1", 0, 0, {}]]], "name": "leaky_re_lu_62"}, {"class_name": "BatchNormalization", "config": {"beta_constraint": null, "gamma_initializer": {"class_name": "Ones", "config": {}}, "moving_mean_initializer": {"class_name": "Zeros", "config": {}}, "name": "batch_normalization_60", "dtype": "float32", "trainable": true, "moving_variance_initializer": {"class_name": "Ones", "config": {}}, "beta_initializer": {"class_name": "Zeros", "config": {}}, "scale": true, "axis": -1, "epsilon": 0.001, "gamma_constraint": null, "gamma_regularizer": null, "beta_regularizer": null, "momentum": 0.99, "center": true}, "inbound_nodes": [[["leaky_re_lu_62", 0, 0, {}]]], "name": "batch_normalization_60"}, {"class_name": "Conv2D", "config": {"kernel_initializer": {"class_name": "VarianceScaling", "config": {"distribution": "uniform", "scale": 1.0, "seed": null, "mode": "fan_avg"}}, "name": "hg1_l4_conv_3x3_x2", "kernel_constraint": null, "bias_regularizer": null, "bias_constraint": null, "dtype": "float32", "activation": "linear", "trainable": true, "data_format": "channels_last", "filters": 8, "padding": "same", "strides": [1, 1], "dilation_rate": [1, 1], "kernel_regularizer": null, "bias_initializer": {"class_name": "Zeros", "config": {}}, "use_bias": true, "activity_regularizer": null, "kernel_size": [3, 3]}, "inbound_nodes": [[["batch_normalization_60", 0, 0, {}]]], "name": "hg1_l4_conv_3x3_x2"}, {"class_name": "LeakyReLU", "config": {"dtype": "float32", "trainable": true, "name": "leaky_re_lu_63", "alpha": 0.10000000149011612}, "inbound_nodes": [[["hg1_l4_conv_3x3_x2", 0, 0, {}]]], "name": "leaky_re_lu_63"}, {"class_name": "BatchNormalization", "config": {"beta_constraint": null, "gamma_initializer": {"class_name": "Ones", "config": {}}, "moving_mean_initializer": {"class_name": "Zeros", "config": {}}, "name": "batch_normalization_61", "dtype": "float32", "trainable": true, "moving_variance_initializer": {"class_name": "Ones", "config": {}}, "beta_initializer": {"class_name": "Zeros", "config": {}}, "scale": true, "axis": -1, "epsilon": 0.001, "gamma_constraint": null, "gamma_regularizer": null, "beta_regularizer": null, "momentum": 0.99, "center": true}, "inbound_nodes": [[["leaky_re_lu_63", 0, 0, {}]]], "name": "batch_normalization_61"}, {"class_name": "Conv2D", "config": {"kernel_initializer": {"class_name": "VarianceScaling", "config": {"distribution": "uniform", "scale": 1.0, "seed": null, "mode": "fan_avg"}}, "name": "hg1_l4_conv_1x1_x3", "kernel_constraint": null, "bias_regularizer": null, "bias_constraint": null, "dtype": "float32", "activation": "linear", "trainable": true, "data_format": "channels_last", "filters": 16, "padding": "same", "strides": [1, 1], "dilation_rate": [1, 1], "kernel_regularizer": null, "bias_initializer": {"class_name": "Zeros", "config": {}}, "use_bias": true, "activity_regularizer": null, "kernel_size": [1, 1]}, "inbound_nodes": [[["batch_normalization_61", 0, 0, {}]]], "name": "hg1_l4_conv_1x1_x3"}, {"class_name": "LeakyReLU", "config": {"dtype": "float32", "trainable": true, "name": "leaky_re_lu_64", "alpha": 0.10000000149011612}, "inbound_nodes": [[["hg1_l4_conv_1x1_x3", 0, 0, {}]]], "name": "leaky_re_lu_64"}, {"class_name": "BatchNormalization", "config": {"beta_constraint": null, "gamma_initializer": {"class_name": "Ones", "config": {}}, "moving_mean_initializer": {"class_name": "Zeros", "config": {}}, "name": "batch_normalization_62", "dtype": "float32", "trainable": true, "moving_variance_initializer": {"class_name": "Ones", "config": {}}, "beta_initializer": {"class_name": "Zeros", "config": {}}, "scale": true, "axis": -1, "epsilon": 0.001, "gamma_constraint": null, "gamma_regularizer": null, "beta_regularizer": null, "momentum": 0.99, "center": true}, "inbound_nodes": [[["leaky_re_lu_64", 0, 0, {}]]], "name": "batch_normalization_62"}, {"class_name": "Add", "config": {"dtype": "float32", "trainable": true, "name": "hg1_l4_residual"}, "inbound_nodes": [[["max_pooling2d_6", 0, 0, {}], ["batch_normalization_62", 0, 0, {}]]], "name": "hg1_l4_residual"}, {"class_name": "MaxPooling2D", "config": {"name": "max_pooling2d_7", "dtype": "float32", "trainable": true, "data_format": "channels_last", "pool_size": [2, 2], "padding": "valid", "strides": [2, 2]}, "inbound_nodes": [[["hg1_l4_residual", 0, 0, {}]]], "name": "max_pooling2d_7"}, {"class_name": "Conv2D", "config": {"kernel_initializer": {"class_name": "VarianceScaling", "config": {"distribution": "uniform", "scale": 1.0, "seed": null, "mode": "fan_avg"}}, "name": "hg1_l8_conv_1x1_x1", "kernel_constraint": null, "bias_regularizer": null, "bias_constraint": null, "dtype": "float32", "activation": "linear", "trainable": true, "data_format": "channels_last", "filters": 8, "padding": "same", "strides": [1, 1], "dilation_rate": [1, 1], "kernel_regularizer": null, "bias_initializer": {"class_name": "Zeros", "config": {}}, "use_bias": true, "activity_regularizer": null, "kernel_size": [1, 1]}, "inbound_nodes": [[["max_pooling2d_7", 0, 0, {}]]], "name": "hg1_l8_conv_1x1_x1"}, {"class_name": "LeakyReLU", "config": {"dtype": "float32", "trainable": true, "name": "leaky_re_lu_65", "alpha": 0.10000000149011612}, "inbound_nodes": [[["hg1_l8_conv_1x1_x1", 0, 0, {}]]], "name": "leaky_re_lu_65"}, {"class_name": "BatchNormalization", "config": {"beta_constraint": null, "gamma_initializer": {"class_name": "Ones", "config": {}}, "moving_mean_initializer": {"class_name": "Zeros", "config": {}}, "name": "batch_normalization_63", "dtype": "float32", "trainable": true, "moving_variance_initializer": {"class_name": "Ones", "config": {}}, "beta_initializer": {"class_name": "Zeros", "config": {}}, "scale": true, "axis": -1, "epsilon": 0.001, "gamma_constraint": null, "gamma_regularizer": null, "beta_regularizer": null, "momentum": 0.99, "center": true}, "inbound_nodes": [[["leaky_re_lu_65", 0, 0, {}]]], "name": "batch_normalization_63"}, {"class_name": "Conv2D", "config": {"kernel_initializer": {"class_name": "VarianceScaling", "config": {"distribution": "uniform", "scale": 1.0, "seed": null, "mode": "fan_avg"}}, "name": "hg1_l8_conv_3x3_x2", "kernel_constraint": null, "bias_regularizer": null, "bias_constraint": null, "dtype": "float32", "activation": "linear", "trainable": true, "data_format": "channels_last", "filters": 8, "padding": "same", "strides": [1, 1], "dilation_rate": [1, 1], "kernel_regularizer": null, "bias_initializer": {"class_name": "Zeros", "config": {}}, "use_bias": true, "activity_regularizer": null, "kernel_size": [3, 3]}, "inbound_nodes": [[["batch_normalization_63", 0, 0, {}]]], "name": "hg1_l8_conv_3x3_x2"}, {"class_name": "LeakyReLU", "config": {"dtype": "float32", "trainable": true, "name": "leaky_re_lu_66", "alpha": 0.10000000149011612}, "inbound_nodes": [[["hg1_l8_conv_3x3_x2", 0, 0, {}]]], "name": "leaky_re_lu_66"}, {"class_name": "BatchNormalization", "config": {"beta_constraint": null, "gamma_initializer": {"class_name": "Ones", "config": {}}, "moving_mean_initializer": {"class_name": "Zeros", "config": {}}, "name": "batch_normalization_64", "dtype": "float32", "trainable": true, "moving_variance_initializer": {"class_name": "Ones", "config": {}}, "beta_initializer": {"class_name": "Zeros", "config": {}}, "scale": true, "axis": -1, "epsilon": 0.001, "gamma_constraint": null, "gamma_regularizer": null, "beta_regularizer": null, "momentum": 0.99, "center": true}, "inbound_nodes": [[["leaky_re_lu_66", 0, 0, {}]]], "name": "batch_normalization_64"}, {"class_name": "Conv2D", "config": {"kernel_initializer": {"class_name": "VarianceScaling", "config": {"distribution": "uniform", "scale": 1.0, "seed": null, "mode": "fan_avg"}}, "name": "hg1_l8_conv_1x1_x3", "kernel_constraint": null, "bias_regularizer": null, "bias_constraint": null, "dtype": "float32", "activation": "linear", "trainable": true, "data_format": "channels_last", "filters": 16, "padding": "same", "strides": [1, 1], "dilation_rate": [1, 1], "kernel_regularizer": null, "bias_initializer": {"class_name": "Zeros", "config": {}}, "use_bias": true, "activity_regularizer": null, "kernel_size": [1, 1]}, "inbound_nodes": [[["batch_normalization_64", 0, 0, {}]]], "name": "hg1_l8_conv_1x1_x3"}, {"class_name": "LeakyReLU", "config": {"dtype": "float32", "trainable": true, "name": "leaky_re_lu_67", "alpha": 0.10000000149011612}, "inbound_nodes": [[["hg1_l8_conv_1x1_x3", 0, 0, {}]]], "name": "leaky_re_lu_67"}, {"class_name": "BatchNormalization", "config": {"beta_constraint": null, "gamma_initializer": {"class_name": "Ones", "config": {}}, "moving_mean_initializer": {"class_name": "Zeros", "config": {}}, "name": "batch_normalization_65", "dtype": "float32", "trainable": true, "moving_variance_initializer": {"class_name": "Ones", "config": {}}, "beta_initializer": {"class_name": "Zeros", "config": {}}, "scale": true, "axis": -1, "epsilon": 0.001, "gamma_constraint": null, "gamma_regularizer": null, "beta_regularizer": null, "momentum": 0.99, "center": true}, "inbound_nodes": [[["leaky_re_lu_67", 0, 0, {}]]], "name": "batch_normalization_65"}, {"class_name": "Add", "config": {"dtype": "float32", "trainable": true, "name": "hg1_l8_residual"}, "inbound_nodes": [[["max_pooling2d_7", 0, 0, {}], ["batch_normalization_65", 0, 0, {}]]], "name": "hg1_l8_residual"}, {"class_name": "Conv2D", "config": {"kernel_initializer": {"class_name": "VarianceScaling", "config": {"distribution": "uniform", "scale": 1.0, "seed": null, "mode": "fan_avg"}}, "name": "1_lf8_x1_conv_1x1_x1", "kernel_constraint": null, "bias_regularizer": null, "bias_constraint": null, "dtype": "float32", "activation": "linear", "trainable": true, "data_format": "channels_last", "filters": 8, "padding": "same", "strides": [1, 1], "dilation_rate": [1, 1], "kernel_regularizer": null, "bias_initializer": {"class_name": "Zeros", "config": {}}, "use_bias": true, "activity_regularizer": null, "kernel_size": [1, 1]}, "inbound_nodes": [[["hg1_l8_residual", 0, 0, {}]]], "name": "1_lf8_x1_conv_1x1_x1"}, {"class_name": "LeakyReLU", "config": {"dtype": "float32", "trainable": true, "name": "leaky_re_lu_71", "alpha": 0.10000000149011612}, "inbound_nodes": [[["1_lf8_x1_conv_1x1_x1", 0, 0, {}]]], "name": "leaky_re_lu_71"}, {"class_name": "BatchNormalization", "config": {"beta_constraint": null, "gamma_initializer": {"class_name": "Ones", "config": {}}, "moving_mean_initializer": {"class_name": "Zeros", "config": {}}, "name": "batch_normalization_69", "dtype": "float32", "trainable": true, "moving_variance_initializer": {"class_name": "Ones", "config": {}}, "beta_initializer": {"class_name": "Zeros", "config": {}}, "scale": true, "axis": -1, "epsilon": 0.001, "gamma_constraint": null, "gamma_regularizer": null, "beta_regularizer": null, "momentum": 0.99, "center": true}, "inbound_nodes": [[["leaky_re_lu_71", 0, 0, {}]]], "name": "batch_normalization_69"}, {"class_name": "Conv2D", "config": {"kernel_initializer": {"class_name": "VarianceScaling", "config": {"distribution": "uniform", "scale": 1.0, "seed": null, "mode": "fan_avg"}}, "name": "1_lf8_x1_conv_3x3_x2", "kernel_constraint": null, "bias_regularizer": null, "bias_constraint": null, "dtype": "float32", "activation": "linear", "trainable": true, "data_format": "channels_last", "filters": 8, "padding": "same", "strides": [1, 1], "dilation_rate": [1, 1], "kernel_regularizer": null, "bias_initializer": {"class_name": "Zeros", "config": {}}, "use_bias": true, "activity_regularizer": null, "kernel_size": [3, 3]}, "inbound_nodes": [[["batch_normalization_69", 0, 0, {}]]], "name": "1_lf8_x1_conv_3x3_x2"}, {"class_name": "LeakyReLU", "config": {"dtype": "float32", "trainable": true, "name": "leaky_re_lu_72", "alpha": 0.10000000149011612}, "inbound_nodes": [[["1_lf8_x1_conv_3x3_x2", 0, 0, {}]]], "name": "leaky_re_lu_72"}, {"class_name": "BatchNormalization", "config": {"beta_constraint": null, "gamma_initializer": {"class_name": "Ones", "config": {}}, "moving_mean_initializer": {"class_name": "Zeros", "config": {}}, "name": "batch_normalization_70", "dtype": "float32", "trainable": true, "moving_variance_initializer": {"class_name": "Ones", "config": {}}, "beta_initializer": {"class_name": "Zeros", "config": {}}, "scale": true, "axis": -1, "epsilon": 0.001, "gamma_constraint": null, "gamma_regularizer": null, "beta_regularizer": null, "momentum": 0.99, "center": true}, "inbound_nodes": [[["leaky_re_lu_72", 0, 0, {}]]], "name": "batch_normalization_70"}, {"class_name": "Conv2D", "config": {"kernel_initializer": {"class_name": "VarianceScaling", "config": {"distribution": "uniform", "scale": 1.0, "seed": null, "mode": "fan_avg"}}, "name": "1_lf8_x1_conv_1x1_x3", "kernel_constraint": null, "bias_regularizer": null, "bias_constraint": null, "dtype": "float32", "activation": "linear", "trainable": true, "data_format": "channels_last", "filters": 16, "padding": "same", "strides": [1, 1], "dilation_rate": [1, 1], "kernel_regularizer": null, "bias_initializer": {"class_name": "Zeros", "config": {}}, "use_bias": true, "activity_regularizer": null, "kernel_size": [1, 1]}, "inbound_nodes": [[["batch_normalization_70", 0, 0, {}]]], "name": "1_lf8_x1_conv_1x1_x3"}, {"class_name": "LeakyReLU", "config": {"dtype": "float32", "trainable": true, "name": "leaky_re_lu_73", "alpha": 0.10000000149011612}, "inbound_nodes": [[["1_lf8_x1_conv_1x1_x3", 0, 0, {}]]], "name": "leaky_re_lu_73"}, {"class_name": "BatchNormalization", "config": {"beta_constraint": null, "gamma_initializer": {"class_name": "Ones", "config": {}}, "moving_mean_initializer": {"class_name": "Zeros", "config": {}}, "name": "batch_normalization_71", "dtype": "float32", "trainable": true, "moving_variance_initializer": {"class_name": "Ones", "config": {}}, "beta_initializer": {"class_name": "Zeros", "config": {}}, "scale": true, "axis": -1, "epsilon": 0.001, "gamma_constraint": null, "gamma_regularizer": null, "beta_regularizer": null, "momentum": 0.99, "center": true}, "inbound_nodes": [[["leaky_re_lu_73", 0, 0, {}]]], "name": "batch_normalization_71"}, {"class_name": "Add", "config": {"dtype": "float32", "trainable": true, "name": "1_lf8_x1_residual"}, "inbound_nodes": [[["hg1_l8_residual", 0, 0, {}], ["batch_normalization_71", 0, 0, {}]]], "name": "1_lf8_x1_residual"}, {"class_name": "Conv2D", "config": {"kernel_initializer": {"class_name": "VarianceScaling", "config": {"distribution": "uniform", "scale": 1.0, "seed": null, "mode": "fan_avg"}}, "name": "1_lf8_x2_conv_1x1_x1", "kernel_constraint": null, "bias_regularizer": null, "bias_constraint": null, "dtype": "float32", "activation": "linear", "trainable": true, "data_format": "channels_last", "filters": 8, "padding": "same", "strides": [1, 1], "dilation_rate": [1, 1], "kernel_regularizer": null, "bias_initializer": {"class_name": "Zeros", "config": {}}, "use_bias": true, "activity_regularizer": null, "kernel_size": [1, 1]}, "inbound_nodes": [[["1_lf8_x1_residual", 0, 0, {}]]], "name": "1_lf8_x2_conv_1x1_x1"}, {"class_name": "LeakyReLU", "config": {"dtype": "float32", "trainable": true, "name": "leaky_re_lu_74", "alpha": 0.10000000149011612}, "inbound_nodes": [[["1_lf8_x2_conv_1x1_x1", 0, 0, {}]]], "name": "leaky_re_lu_74"}, {"class_name": "BatchNormalization", "config": {"beta_constraint": null, "gamma_initializer": {"class_name": "Ones", "config": {}}, "moving_mean_initializer": {"class_name": "Zeros", "config": {}}, "name": "batch_normalization_72", "dtype": "float32", "trainable": true, "moving_variance_initializer": {"class_name": "Ones", "config": {}}, "beta_initializer": {"class_name": "Zeros", "config": {}}, "scale": true, "axis": -1, "epsilon": 0.001, "gamma_constraint": null, "gamma_regularizer": null, "beta_regularizer": null, "momentum": 0.99, "center": true}, "inbound_nodes": [[["leaky_re_lu_74", 0, 0, {}]]], "name": "batch_normalization_72"}, {"class_name": "Conv2D", "config": {"kernel_initializer": {"class_name": "VarianceScaling", "config": {"distribution": "uniform", "scale": 1.0, "seed": null, "mode": "fan_avg"}}, "name": "1_lf8_x2_conv_3x3_x2", "kernel_constraint": null, "bias_regularizer": null, "bias_constraint": null, "dtype": "float32", "activation": "linear", "trainable": true, "data_format": "channels_last", "filters": 8, "padding": "same", "strides": [1, 1], "dilation_rate": [1, 1], "kernel_regularizer": null, "bias_initializer": {"class_name": "Zeros", "config": {}}, "use_bias": true, "activity_regularizer": null, "kernel_size": [3, 3]}, "inbound_nodes": [[["batch_normalization_72", 0, 0, {}]]], "name": "1_lf8_x2_conv_3x3_x2"}, {"class_name": "LeakyReLU", "config": {"dtype": "float32", "trainable": true, "name": "leaky_re_lu_75", "alpha": 0.10000000149011612}, "inbound_nodes": [[["1_lf8_x2_conv_3x3_x2", 0, 0, {}]]], "name": "leaky_re_lu_75"}, {"class_name": "BatchNormalization", "config": {"beta_constraint": null, "gamma_initializer": {"class_name": "Ones", "config": {}}, "moving_mean_initializer": {"class_name": "Zeros", "config": {}}, "name": "batch_normalization_73", "dtype": "float32", "trainable": true, "moving_variance_initializer": {"class_name": "Ones", "config": {}}, "beta_initializer": {"class_name": "Zeros", "config": {}}, "scale": true, "axis": -1, "epsilon": 0.001, "gamma_constraint": null, "gamma_regularizer": null, "beta_regularizer": null, "momentum": 0.99, "center": true}, "inbound_nodes": [[["leaky_re_lu_75", 0, 0, {}]]], "name": "batch_normalization_73"}, {"class_name": "Conv2D", "config": {"kernel_initializer": {"class_name": "VarianceScaling", "config": {"distribution": "uniform", "scale": 1.0, "seed": null, "mode": "fan_avg"}}, "name": "1_lf8_x2_conv_1x1_x3", "kernel_constraint": null, "bias_regularizer": null, "bias_constraint": null, "dtype": "float32", "activation": "linear", "trainable": true, "data_format": "channels_last", "filters": 16, "padding": "same", "strides": [1, 1], "dilation_rate": [1, 1], "kernel_regularizer": null, "bias_initializer": {"class_name": "Zeros", "config": {}}, "use_bias": true, "activity_regularizer": null, "kernel_size": [1, 1]}, "inbound_nodes": [[["batch_normalization_73", 0, 0, {}]]], "name": "1_lf8_x2_conv_1x1_x3"}, {"class_name": "LeakyReLU", "config": {"dtype": "float32", "trainable": true, "name": "leaky_re_lu_76", "alpha": 0.10000000149011612}, "inbound_nodes": [[["1_lf8_x2_conv_1x1_x3", 0, 0, {}]]], "name": "leaky_re_lu_76"}, {"class_name": "BatchNormalization", "config": {"beta_constraint": null, "gamma_initializer": {"class_name": "Ones", "config": {}}, "moving_mean_initializer": {"class_name": "Zeros", "config": {}}, "name": "batch_normalization_74", "dtype": "float32", "trainable": true, "moving_variance_initializer": {"class_name": "Ones", "config": {}}, "beta_initializer": {"class_name": "Zeros", "config": {}}, "scale": true, "axis": -1, "epsilon": 0.001, "gamma_constraint": null, "gamma_regularizer": null, "beta_regularizer": null, "momentum": 0.99, "center": true}, "inbound_nodes": [[["leaky_re_lu_76", 0, 0, {}]]], "name": "batch_normalization_74"}, {"class_name": "Add", "config": {"dtype": "float32", "trainable": true, "name": "1_lf8_x2_residual"}, "inbound_nodes": [[["1_lf8_x1_residual", 0, 0, {}], ["batch_normalization_74", 0, 0, {}]]], "name": "1_lf8_x2_residual"}, {"class_name": "Conv2D", "config": {"kernel_initializer": {"class_name": "VarianceScaling", "config": {"distribution": "uniform", "scale": 1.0, "seed": null, "mode": "fan_avg"}}, "name": "1_lf8_x3_conv_1x1_x1", "kernel_constraint": null, "bias_regularizer": null, "bias_constraint": null, "dtype": "float32", "activation": "linear", "trainable": true, "data_format": "channels_last", "filters": 8, "padding": "same", "strides": [1, 1], "dilation_rate": [1, 1], "kernel_regularizer": null, "bias_initializer": {"class_name": "Zeros", "config": {}}, "use_bias": true, "activity_regularizer": null, "kernel_size": [1, 1]}, "inbound_nodes": [[["1_lf8_x2_residual", 0, 0, {}]]], "name": "1_lf8_x3_conv_1x1_x1"}, {"class_name": "Conv2D", "config": {"kernel_initializer": {"class_name": "VarianceScaling", "config": {"distribution": "uniform", "scale": 1.0, "seed": null, "mode": "fan_avg"}}, "name": "1_lf8_conv_1x1_x1", "kernel_constraint": null, "bias_regularizer": null, "bias_constraint": null, "dtype": "float32", "activation": "linear", "trainable": true, "data_format": "channels_last", "filters": 8, "padding": "same", "strides": [1, 1], "dilation_rate": [1, 1], "kernel_regularizer": null, "bias_initializer": {"class_name": "Zeros", "config": {}}, "use_bias": true, "activity_regularizer": null, "kernel_size": [1, 1]}, "inbound_nodes": [[["hg1_l8_residual", 0, 0, {}]]], "name": "1_lf8_conv_1x1_x1"}, {"class_name": "LeakyReLU", "config": {"dtype": "float32", "trainable": true, "name": "leaky_re_lu_77", "alpha": 0.10000000149011612}, "inbound_nodes": [[["1_lf8_x3_conv_1x1_x1", 0, 0, {}]]], "name": "leaky_re_lu_77"}, {"class_name": "LeakyReLU", "config": {"dtype": "float32", "trainable": true, "name": "leaky_re_lu_68", "alpha": 0.10000000149011612}, "inbound_nodes": [[["1_lf8_conv_1x1_x1", 0, 0, {}]]], "name": "leaky_re_lu_68"}, {"class_name": "Conv2D", "config": {"kernel_initializer": {"class_name": "VarianceScaling", "config": {"distribution": "uniform", "scale": 1.0, "seed": null, "mode": "fan_avg"}}, "name": "hg1_rf4_connect_conv_1x1_x1", "kernel_constraint": null, "bias_regularizer": null, "bias_constraint": null, "dtype": "float32", "activation": "linear", "trainable": true, "data_format": "channels_last", "filters": 8, "padding": "same", "strides": [1, 1], "dilation_rate": [1, 1], "kernel_regularizer": null, "bias_initializer": {"class_name": "Zeros", "config": {}}, "use_bias": true, "activity_regularizer": null, "kernel_size": [1, 1]}, "inbound_nodes": [[["hg1_l4_residual", 0, 0, {}]]], "name": "hg1_rf4_connect_conv_1x1_x1"}, {"class_name": "BatchNormalization", "config": {"beta_constraint": null, "gamma_initializer": {"class_name": "Ones", "config": {}}, "moving_mean_initializer": {"class_name": "Zeros", "config": {}}, "name": "batch_normalization_75", "dtype": "float32", "trainable": true, "moving_variance_initializer": {"class_name": "Ones", "config": {}}, "beta_initializer": {"class_name": "Zeros", "config": {}}, "scale": true, "axis": -1, "epsilon": 0.001, "gamma_constraint": null, "gamma_regularizer": null, "beta_regularizer": null, "momentum": 0.99, "center": true}, "inbound_nodes": [[["leaky_re_lu_77", 0, 0, {}]]], "name": "batch_normalization_75"}, {"class_name": "BatchNormalization", "config": {"beta_constraint": null, "gamma_initializer": {"class_name": "Ones", "config": {}}, "moving_mean_initializer": {"class_name": "Zeros", "config": {}}, "name": "batch_normalization_66", "dtype": "float32", "trainable": true, "moving_variance_initializer": {"class_name": "Ones", "config": {}}, "beta_initializer": {"class_name": "Zeros", "config": {}}, "scale": true, "axis": -1, "epsilon": 0.001, "gamma_constraint": null, "gamma_regularizer": null, "beta_regularizer": null, "momentum": 0.99, "center": true}, "inbound_nodes": [[["leaky_re_lu_68", 0, 0, {}]]], "name": "batch_normalization_66"}, {"class_name": "LeakyReLU", "config": {"dtype": "float32", "trainable": true, "name": "leaky_re_lu_80", "alpha": 0.10000000149011612}, "inbound_nodes": [[["hg1_rf4_connect_conv_1x1_x1", 0, 0, {}]]], "name": "leaky_re_lu_80"}, {"class_name": "Conv2D", "config": {"kernel_initializer": {"class_name": "VarianceScaling", "config": {"distribution": "uniform", "scale": 1.0, "seed": null, "mode": "fan_avg"}}, "name": "1_lf8_x3_conv_3x3_x2", "kernel_constraint": null, "bias_regularizer": null, "bias_constraint": null, "dtype": "float32", "activation": "linear", "trainable": true, "data_format": "channels_last", "filters": 8, "padding": "same", "strides": [1, 1], "dilation_rate": [1, 1], "kernel_regularizer": null, "bias_initializer": {"class_name": "Zeros", "config": {}}, "use_bias": true, "activity_regularizer": null, "kernel_size": [3, 3]}, "inbound_nodes": [[["batch_normalization_75", 0, 0, {}]]], "name": "1_lf8_x3_conv_3x3_x2"}, {"class_name": "Conv2D", "config": {"kernel_initializer": {"class_name": "VarianceScaling", "config": {"distribution": "uniform", "scale": 1.0, "seed": null, "mode": "fan_avg"}}, "name": "1_lf8_conv_3x3_x2", "kernel_constraint": null, "bias_regularizer": null, "bias_constraint": null, "dtype": "float32", "activation": "linear", "trainable": true, "data_format": "channels_last", "filters": 8, "padding": "same", "strides": [1, 1], "dilation_rate": [1, 1], "kernel_regularizer": null, "bias_initializer": {"class_name": "Zeros", "config": {}}, "use_bias": true, "activity_regularizer": null, "kernel_size": [3, 3]}, "inbound_nodes": [[["batch_normalization_66", 0, 0, {}]]], "name": "1_lf8_conv_3x3_x2"}, {"class_name": "BatchNormalization", "config": {"beta_constraint": null, "gamma_initializer": {"class_name": "Ones", "config": {}}, "moving_mean_initializer": {"class_name": "Zeros", "config": {}}, "name": "batch_normalization_78", "dtype": "float32", "trainable": true, "moving_variance_initializer": {"class_name": "Ones", "config": {}}, "beta_initializer": {"class_name": "Zeros", "config": {}}, "scale": true, "axis": -1, "epsilon": 0.001, "gamma_constraint": null, "gamma_regularizer": null, "beta_regularizer": null, "momentum": 0.99, "center": true}, "inbound_nodes": [[["leaky_re_lu_80", 0, 0, {}]]], "name": "batch_normalization_78"}, {"class_name": "LeakyReLU", "config": {"dtype": "float32", "trainable": true, "name": "leaky_re_lu_78", "alpha": 0.10000000149011612}, "inbound_nodes": [[["1_lf8_x3_conv_3x3_x2", 0, 0, {}]]], "name": "leaky_re_lu_78"}, {"class_name": "LeakyReLU", "config": {"dtype": "float32", "trainable": true, "name": "leaky_re_lu_69", "alpha": 0.10000000149011612}, "inbound_nodes": [[["1_lf8_conv_3x3_x2", 0, 0, {}]]], "name": "leaky_re_lu_69"}, {"class_name": "Conv2D", "config": {"kernel_initializer": {"class_name": "VarianceScaling", "config": {"distribution": "uniform", "scale": 1.0, "seed": null, "mode": "fan_avg"}}, "name": "hg1_rf4_connect_conv_3x3_x2", "kernel_constraint": null, "bias_regularizer": null, "bias_constraint": null, "dtype": "float32", "activation": "linear", "trainable": true, "data_format": "channels_last", "filters": 8, "padding": "same", "strides": [1, 1], "dilation_rate": [1, 1], "kernel_regularizer": null, "bias_initializer": {"class_name": "Zeros", "config": {}}, "use_bias": true, "activity_regularizer": null, "kernel_size": [3, 3]}, "inbound_nodes": [[["batch_normalization_78", 0, 0, {}]]], "name": "hg1_rf4_connect_conv_3x3_x2"}, {"class_name": "BatchNormalization", "config": {"beta_constraint": null, "gamma_initializer": {"class_name": "Ones", "config": {}}, "moving_mean_initializer": {"class_name": "Zeros", "config": {}}, "name": "batch_normalization_76", "dtype": "float32", "trainable": true, "moving_variance_initializer": {"class_name": "Ones", "config": {}}, "beta_initializer": {"class_name": "Zeros", "config": {}}, "scale": true, "axis": -1, "epsilon": 0.001, "gamma_constraint": null, "gamma_regularizer": null, "beta_regularizer": null, "momentum": 0.99, "center": true}, "inbound_nodes": [[["leaky_re_lu_78", 0, 0, {}]]], "name": "batch_normalization_76"}, {"class_name": "BatchNormalization", "config": {"beta_constraint": null, "gamma_initializer": {"class_name": "Ones", "config": {}}, "moving_mean_initializer": {"class_name": "Zeros", "config": {}}, "name": "batch_normalization_67", "dtype": "float32", "trainable": true, "moving_variance_initializer": {"class_name": "Ones", "config": {}}, "beta_initializer": {"class_name": "Zeros", "config": {}}, "scale": true, "axis": -1, "epsilon": 0.001, "gamma_constraint": null, "gamma_regularizer": null, "beta_regularizer": null, "momentum": 0.99, "center": true}, "inbound_nodes": [[["leaky_re_lu_69", 0, 0, {}]]], "name": "batch_normalization_67"}, {"class_name": "LeakyReLU", "config": {"dtype": "float32", "trainable": true, "name": "leaky_re_lu_81", "alpha": 0.10000000149011612}, "inbound_nodes": [[["hg1_rf4_connect_conv_3x3_x2", 0, 0, {}]]], "name": "leaky_re_lu_81"}, {"class_name": "Conv2D", "config": {"kernel_initializer": {"class_name": "VarianceScaling", "config": {"distribution": "uniform", "scale": 1.0, "seed": null, "mode": "fan_avg"}}, "name": "1_lf8_x3_conv_1x1_x3", "kernel_constraint": null, "bias_regularizer": null, "bias_constraint": null, "dtype": "float32", "activation": "linear", "trainable": true, "data_format": "channels_last", "filters": 16, "padding": "same", "strides": [1, 1], "dilation_rate": [1, 1], "kernel_regularizer": null, "bias_initializer": {"class_name": "Zeros", "config": {}}, "use_bias": true, "activity_regularizer": null, "kernel_size": [1, 1]}, "inbound_nodes": [[["batch_normalization_76", 0, 0, {}]]], "name": "1_lf8_x3_conv_1x1_x3"}, {"class_name": "Conv2D", "config": {"kernel_initializer": {"class_name": "VarianceScaling", "config": {"distribution": "uniform", "scale": 1.0, "seed": null, "mode": "fan_avg"}}, "name": "1_lf8_conv_1x1_x3", "kernel_constraint": null, "bias_regularizer": null, "bias_constraint": null, "dtype": "float32", "activation": "linear", "trainable": true, "data_format": "channels_last", "filters": 16, "padding": "same", "strides": [1, 1], "dilation_rate": [1, 1], "kernel_regularizer": null, "bias_initializer": {"class_name": "Zeros", "config": {}}, "use_bias": true, "activity_regularizer": null, "kernel_size": [1, 1]}, "inbound_nodes": [[["batch_normalization_67", 0, 0, {}]]], "name": "1_lf8_conv_1x1_x3"}, {"class_name": "BatchNormalization", "config": {"beta_constraint": null, "gamma_initializer": {"class_name": "Ones", "config": {}}, "moving_mean_initializer": {"class_name": "Zeros", "config": {}}, "name": "batch_normalization_79", "dtype": "float32", "trainable": true, "moving_variance_initializer": {"class_name": "Ones", "config": {}}, "beta_initializer": {"class_name": "Zeros", "config": {}}, "scale": true, "axis": -1, "epsilon": 0.001, "gamma_constraint": null, "gamma_regularizer": null, "beta_regularizer": null, "momentum": 0.99, "center": true}, "inbound_nodes": [[["leaky_re_lu_81", 0, 0, {}]]], "name": "batch_normalization_79"}, {"class_name": "LeakyReLU", "config": {"dtype": "float32", "trainable": true, "name": "leaky_re_lu_79", "alpha": 0.10000000149011612}, "inbound_nodes": [[["1_lf8_x3_conv_1x1_x3", 0, 0, {}]]], "name": "leaky_re_lu_79"}, {"class_name": "LeakyReLU", "config": {"dtype": "float32", "trainable": true, "name": "leaky_re_lu_70", "alpha": 0.10000000149011612}, "inbound_nodes": [[["1_lf8_conv_1x1_x3", 0, 0, {}]]], "name": "leaky_re_lu_70"}, {"class_name": "Conv2D", "config": {"kernel_initializer": {"class_name": "VarianceScaling", "config": {"distribution": "uniform", "scale": 1.0, "seed": null, "mode": "fan_avg"}}, "name": "hg1_rf4_connect_conv_1x1_x3", "kernel_constraint": null, "bias_regularizer": null, "bias_constraint": null, "dtype": "float32", "activation": "linear", "trainable": true, "data_format": "channels_last", "filters": 16, "padding": "same", "strides": [1, 1], "dilation_rate": [1, 1], "kernel_regularizer": null, "bias_initializer": {"class_name": "Zeros", "config": {}}, "use_bias": true, "activity_regularizer": null, "kernel_size": [1, 1]}, "inbound_nodes": [[["batch_normalization_79", 0, 0, {}]]], "name": "hg1_rf4_connect_conv_1x1_x3"}, {"class_name": "BatchNormalization", "config": {"beta_constraint": null, "gamma_initializer": {"class_name": "Ones", "config": {}}, "moving_mean_initializer": {"class_name": "Zeros", "config": {}}, "name": "batch_normalization_77", "dtype": "float32", "trainable": true, "moving_variance_initializer": {"class_name": "Ones", "config": {}}, "beta_initializer": {"class_name": "Zeros", "config": {}}, "scale": true, "axis": -1, "epsilon": 0.001, "gamma_constraint": null, "gamma_regularizer": null, "beta_regularizer": null, "momentum": 0.99, "center": true}, "inbound_nodes": [[["leaky_re_lu_79", 0, 0, {}]]], "name": "batch_normalization_77"}, {"class_name": "BatchNormalization", "config": {"beta_constraint": null, "gamma_initializer": {"class_name": "Ones", "config": {}}, "moving_mean_initializer": {"class_name": "Zeros", "config": {}}, "name": "batch_normalization_68", "dtype": "float32", "trainable": true, "moving_variance_initializer": {"class_name": "Ones", "config": {}}, "beta_initializer": {"class_name": "Zeros", "config": {}}, "scale": true, "axis": -1, "epsilon": 0.001, "gamma_constraint": null, "gamma_regularizer": null, "beta_regularizer": null, "momentum": 0.99, "center": true}, "inbound_nodes": [[["leaky_re_lu_70", 0, 0, {}]]], "name": "batch_normalization_68"}, {"class_name": "LeakyReLU", "config": {"dtype": "float32", "trainable": true, "name": "leaky_re_lu_82", "alpha": 0.10000000149011612}, "inbound_nodes": [[["hg1_rf4_connect_conv_1x1_x3", 0, 0, {}]]], "name": "leaky_re_lu_82"}, {"class_name": "Add", "config": {"dtype": "float32", "trainable": true, "name": "1_lf8_x3_residual"}, "inbound_nodes": [[["1_lf8_x2_residual", 0, 0, {}], ["batch_normalization_77", 0, 0, {}]]], "name": "1_lf8_x3_residual"}, {"class_name": "Add", "config": {"dtype": "float32", "trainable": true, "name": "1_lf8_residual"}, "inbound_nodes": [[["hg1_l8_residual", 0, 0, {}], ["batch_normalization_68", 0, 0, {}]]], "name": "1_lf8_residual"}, {"class_name": "BatchNormalization", "config": {"beta_constraint": null, "gamma_initializer": {"class_name": "Ones", "config": {}}, "moving_mean_initializer": {"class_name": "Zeros", "config": {}}, "name": "batch_normalization_80", "dtype": "float32", "trainable": true, "moving_variance_initializer": {"class_name": "Ones", "config": {}}, "beta_initializer": {"class_name": "Zeros", "config": {}}, "scale": true, "axis": -1, "epsilon": 0.001, "gamma_constraint": null, "gamma_regularizer": null, "beta_regularizer": null, "momentum": 0.99, "center": true}, "inbound_nodes": [[["leaky_re_lu_82", 0, 0, {}]]], "name": "batch_normalization_80"}, {"class_name": "Add", "config": {"dtype": "float32", "trainable": true, "name": "add_6"}, "inbound_nodes": [[["1_lf8_x3_residual", 0, 0, {}], ["1_lf8_residual", 0, 0, {}]]], "name": "add_6"}, {"class_name": "Add", "config": {"dtype": "float32", "trainable": true, "name": "hg1_rf4_connect_residual"}, "inbound_nodes": [[["hg1_l4_residual", 0, 0, {}], ["batch_normalization_80", 0, 0, {}]]], "name": "hg1_rf4_connect_residual"}, {"class_name": "UpSampling2D", "config": {"name": "up_sampling2d_4", "dtype": "float32", "trainable": true, "data_format": "channels_last", "size": [2, 2], "interpolation": "nearest"}, "inbound_nodes": [[["add_6", 0, 0, {}]]], "name": "up_sampling2d_4"}, {"class_name": "Add", "config": {"dtype": "float32", "trainable": true, "name": "add_7"}, "inbound_nodes": [[["hg1_rf4_connect_residual", 0, 0, {}], ["up_sampling2d_4", 0, 0, {}]]], "name": "add_7"}, {"class_name": "Conv2D", "config": {"kernel_initializer": {"class_name": "VarianceScaling", "config": {"distribution": "uniform", "scale": 1.0, "seed": null, "mode": "fan_avg"}}, "name": "hg1_rf4_connect_conv_conv_1x1_x1", "kernel_constraint": null, "bias_regularizer": null, "bias_constraint": null, "dtype": "float32", "activation": "linear", "trainable": true, "data_format": "channels_last", "filters": 8, "padding": "same", "strides": [1, 1], "dilation_rate": [1, 1], "kernel_regularizer": null, "bias_initializer": {"class_name": "Zeros", "config": {}}, "use_bias": true, "activity_regularizer": null, "kernel_size": [1, 1]}, "inbound_nodes": [[["add_7", 0, 0, {}]]], "name": "hg1_rf4_connect_conv_conv_1x1_x1"}, {"class_name": "Conv2D", "config": {"kernel_initializer": {"class_name": "VarianceScaling", "config": {"distribution": "uniform", "scale": 1.0, "seed": null, "mode": "fan_avg"}}, "name": "hg1_rf2_connect_conv_1x1_x1", "kernel_constraint": null, "bias_regularizer": null, "bias_constraint": null, "dtype": "float32", "activation": "linear", "trainable": true, "data_format": "channels_last", "filters": 8, "padding": "same", "strides": [1, 1], "dilation_rate": [1, 1], "kernel_regularizer": null, "bias_initializer": {"class_name": "Zeros", "config": {}}, "use_bias": true, "activity_regularizer": null, "kernel_size": [1, 1]}, "inbound_nodes": [[["hg1_l2_residual", 0, 0, {}]]], "name": "hg1_rf2_connect_conv_1x1_x1"}, {"class_name": "LeakyReLU", "config": {"dtype": "float32", "trainable": true, "name": "leaky_re_lu_83", "alpha": 0.10000000149011612}, "inbound_nodes": [[["hg1_rf4_connect_conv_conv_1x1_x1", 0, 0, {}]]], "name": "leaky_re_lu_83"}, {"class_name": "LeakyReLU", "config": {"dtype": "float32", "trainable": true, "name": "leaky_re_lu_86", "alpha": 0.10000000149011612}, "inbound_nodes": [[["hg1_rf2_connect_conv_1x1_x1", 0, 0, {}]]], "name": "leaky_re_lu_86"}, {"class_name": "BatchNormalization", "config": {"beta_constraint": null, "gamma_initializer": {"class_name": "Ones", "config": {}}, "moving_mean_initializer": {"class_name": "Zeros", "config": {}}, "name": "batch_normalization_81", "dtype": "float32", "trainable": true, "moving_variance_initializer": {"class_name": "Ones", "config": {}}, "beta_initializer": {"class_name": "Zeros", "config": {}}, "scale": true, "axis": -1, "epsilon": 0.001, "gamma_constraint": null, "gamma_regularizer": null, "beta_regularizer": null, "momentum": 0.99, "center": true}, "inbound_nodes": [[["leaky_re_lu_83", 0, 0, {}]]], "name": "batch_normalization_81"}, {"class_name": "BatchNormalization", "config": {"beta_constraint": null, "gamma_initializer": {"class_name": "Ones", "config": {}}, "moving_mean_initializer": {"class_name": "Zeros", "config": {}}, "name": "batch_normalization_84", "dtype": "float32", "trainable": true, "moving_variance_initializer": {"class_name": "Ones", "config": {}}, "beta_initializer": {"class_name": "Zeros", "config": {}}, "scale": true, "axis": -1, "epsilon": 0.001, "gamma_constraint": null, "gamma_regularizer": null, "beta_regularizer": null, "momentum": 0.99, "center": true}, "inbound_nodes": [[["leaky_re_lu_86", 0, 0, {}]]], "name": "batch_normalization_84"}, {"class_name": "Conv2D", "config": {"kernel_initializer": {"class_name": "VarianceScaling", "config": {"distribution": "uniform", "scale": 1.0, "seed": null, "mode": "fan_avg"}}, "name": "hg1_rf4_connect_conv_conv_3x3_x2", "kernel_constraint": null, "bias_regularizer": null, "bias_constraint": null, "dtype": "float32", "activation": "linear", "trainable": true, "data_format": "channels_last", "filters": 8, "padding": "same", "strides": [1, 1], "dilation_rate": [1, 1], "kernel_regularizer": null, "bias_initializer": {"class_name": "Zeros", "config": {}}, "use_bias": true, "activity_regularizer": null, "kernel_size": [3, 3]}, "inbound_nodes": [[["batch_normalization_81", 0, 0, {}]]], "name": "hg1_rf4_connect_conv_conv_3x3_x2"}, {"class_name": "Conv2D", "config": {"kernel_initializer": {"class_name": "VarianceScaling", "config": {"distribution": "uniform", "scale": 1.0, "seed": null, "mode": "fan_avg"}}, "name": "hg1_rf2_connect_conv_3x3_x2", "kernel_constraint": null, "bias_regularizer": null, "bias_constraint": null, "dtype": "float32", "activation": "linear", "trainable": true, "data_format": "channels_last", "filters": 8, "padding": "same", "strides": [1, 1], "dilation_rate": [1, 1], "kernel_regularizer": null, "bias_initializer": {"class_name": "Zeros", "config": {}}, "use_bias": true, "activity_regularizer": null, "kernel_size": [3, 3]}, "inbound_nodes": [[["batch_normalization_84", 0, 0, {}]]], "name": "hg1_rf2_connect_conv_3x3_x2"}, {"class_name": "LeakyReLU", "config": {"dtype": "float32", "trainable": true, "name": "leaky_re_lu_84", "alpha": 0.10000000149011612}, "inbound_nodes": [[["hg1_rf4_connect_conv_conv_3x3_x2", 0, 0, {}]]], "name": "leaky_re_lu_84"}, {"class_name": "LeakyReLU", "config": {"dtype": "float32", "trainable": true, "name": "leaky_re_lu_87", "alpha": 0.10000000149011612}, "inbound_nodes": [[["hg1_rf2_connect_conv_3x3_x2", 0, 0, {}]]], "name": "leaky_re_lu_87"}, {"class_name": "BatchNormalization", "config": {"beta_constraint": null, "gamma_initializer": {"class_name": "Ones", "config": {}}, "moving_mean_initializer": {"class_name": "Zeros", "config": {}}, "name": "batch_normalization_82", "dtype": "float32", "trainable": true, "moving_variance_initializer": {"class_name": "Ones", "config": {}}, "beta_initializer": {"class_name": "Zeros", "config": {}}, "scale": true, "axis": -1, "epsilon": 0.001, "gamma_constraint": null, "gamma_regularizer": null, "beta_regularizer": null, "momentum": 0.99, "center": true}, "inbound_nodes": [[["leaky_re_lu_84", 0, 0, {}]]], "name": "batch_normalization_82"}, {"class_name": "BatchNormalization", "config": {"beta_constraint": null, "gamma_initializer": {"class_name": "Ones", "config": {}}, "moving_mean_initializer": {"class_name": "Zeros", "config": {}}, "name": "batch_normalization_85", "dtype": "float32", "trainable": true, "moving_variance_initializer": {"class_name": "Ones", "config": {}}, "beta_initializer": {"class_name": "Zeros", "config": {}}, "scale": true, "axis": -1, "epsilon": 0.001, "gamma_constraint": null, "gamma_regularizer": null, "beta_regularizer": null, "momentum": 0.99, "center": true}, "inbound_nodes": [[["leaky_re_lu_87", 0, 0, {}]]], "name": "batch_normalization_85"}, {"class_name": "Conv2D", "config": {"kernel_initializer": {"class_name": "VarianceScaling", "config": {"distribution": "uniform", "scale": 1.0, "seed": null, "mode": "fan_avg"}}, "name": "hg1_rf4_connect_conv_conv_1x1_x3", "kernel_constraint": null, "bias_regularizer": null, "bias_constraint": null, "dtype": "float32", "activation": "linear", "trainable": true, "data_format": "channels_last", "filters": 16, "padding": "same", "strides": [1, 1], "dilation_rate": [1, 1], "kernel_regularizer": null, "bias_initializer": {"class_name": "Zeros", "config": {}}, "use_bias": true, "activity_regularizer": null, "kernel_size": [1, 1]}, "inbound_nodes": [[["batch_normalization_82", 0, 0, {}]]], "name": "hg1_rf4_connect_conv_conv_1x1_x3"}, {"class_name": "Conv2D", "config": {"kernel_initializer": {"class_name": "VarianceScaling", "config": {"distribution": "uniform", "scale": 1.0, "seed": null, "mode": "fan_avg"}}, "name": "hg1_rf2_connect_conv_1x1_x3", "kernel_constraint": null, "bias_regularizer": null, "bias_constraint": null, "dtype": "float32", "activation": "linear", "trainable": true, "data_format": "channels_last", "filters": 16, "padding": "same", "strides": [1, 1], "dilation_rate": [1, 1], "kernel_regularizer": null, "bias_initializer": {"class_name": "Zeros", "config": {}}, "use_bias": true, "activity_regularizer": null, "kernel_size": [1, 1]}, "inbound_nodes": [[["batch_normalization_85", 0, 0, {}]]], "name": "hg1_rf2_connect_conv_1x1_x3"}, {"class_name": "LeakyReLU", "config": {"dtype": "float32", "trainable": true, "name": "leaky_re_lu_85", "alpha": 0.10000000149011612}, "inbound_nodes": [[["hg1_rf4_connect_conv_conv_1x1_x3", 0, 0, {}]]], "name": "leaky_re_lu_85"}, {"class_name": "LeakyReLU", "config": {"dtype": "float32", "trainable": true, "name": "leaky_re_lu_88", "alpha": 0.10000000149011612}, "inbound_nodes": [[["hg1_rf2_connect_conv_1x1_x3", 0, 0, {}]]], "name": "leaky_re_lu_88"}, {"class_name": "BatchNormalization", "config": {"beta_constraint": null, "gamma_initializer": {"class_name": "Ones", "config": {}}, "moving_mean_initializer": {"class_name": "Zeros", "config": {}}, "name": "batch_normalization_83", "dtype": "float32", "trainable": true, "moving_variance_initializer": {"class_name": "Ones", "config": {}}, "beta_initializer": {"class_name": "Zeros", "config": {}}, "scale": true, "axis": -1, "epsilon": 0.001, "gamma_constraint": null, "gamma_regularizer": null, "beta_regularizer": null, "momentum": 0.99, "center": true}, "inbound_nodes": [[["leaky_re_lu_85", 0, 0, {}]]], "name": "batch_normalization_83"}, {"class_name": "BatchNormalization", "config": {"beta_constraint": null, "gamma_initializer": {"class_name": "Ones", "config": {}}, "moving_mean_initializer": {"class_name": "Zeros", "config": {}}, "name": "batch_normalization_86", "dtype": "float32", "trainable": true, "moving_variance_initializer": {"class_name": "Ones", "config": {}}, "beta_initializer": {"class_name": "Zeros", "config": {}}, "scale": true, "axis": -1, "epsilon": 0.001, "gamma_constraint": null, "gamma_regularizer": null, "beta_regularizer": null, "momentum": 0.99, "center": true}, "inbound_nodes": [[["leaky_re_lu_88", 0, 0, {}]]], "name": "batch_normalization_86"}, {"class_name": "Add", "config": {"dtype": "float32", "trainable": true, "name": "hg1_rf4_connect_conv_residual"}, "inbound_nodes": [[["add_7", 0, 0, {}], ["batch_normalization_83", 0, 0, {}]]], "name": "hg1_rf4_connect_conv_residual"}, {"class_name": "Add", "config": {"dtype": "float32", "trainable": true, "name": "hg1_rf2_connect_residual"}, "inbound_nodes": [[["hg1_l2_residual", 0, 0, {}], ["batch_normalization_86", 0, 0, {}]]], "name": "hg1_rf2_connect_residual"}, {"class_name": "UpSampling2D", "config": {"name": "up_sampling2d_5", "dtype": "float32", "trainable": true, "data_format": "channels_last", "size": [2, 2], "interpolation": "nearest"}, "inbound_nodes": [[["hg1_rf4_connect_conv_residual", 0, 0, {}]]], "name": "up_sampling2d_5"}, {"class_name": "Add", "config": {"dtype": "float32", "trainable": true, "name": "add_8"}, "inbound_nodes": [[["hg1_rf2_connect_residual", 0, 0, {}], ["up_sampling2d_5", 0, 0, {}]]], "name": "add_8"}, {"class_name": "Conv2D", "config": {"kernel_initializer": {"class_name": "VarianceScaling", "config": {"distribution": "uniform", "scale": 1.0, "seed": null, "mode": "fan_avg"}}, "name": "hg1_rf2_connect_conv_conv_1x1_x1", "kernel_constraint": null, "bias_regularizer": null, "bias_constraint": null, "dtype": "float32", "activation": "linear", "trainable": true, "data_format": "channels_last", "filters": 8, "padding": "same", "strides": [1, 1], "dilation_rate": [1, 1], "kernel_regularizer": null, "bias_initializer": {"class_name": "Zeros", "config": {}}, "use_bias": true, "activity_regularizer": null, "kernel_size": [1, 1]}, "inbound_nodes": [[["add_8", 0, 0, {}]]], "name": "hg1_rf2_connect_conv_conv_1x1_x1"}, {"class_name": "Conv2D", "config": {"kernel_initializer": {"class_name": "VarianceScaling", "config": {"distribution": "uniform", "scale": 1.0, "seed": null, "mode": "fan_avg"}}, "name": "hg1_rf1_connect_conv_1x1_x1", "kernel_constraint": null, "bias_regularizer": null, "bias_constraint": null, "dtype": "float32", "activation": "linear", "trainable": true, "data_format": "channels_last", "filters": 8, "padding": "same", "strides": [1, 1], "dilation_rate": [1, 1], "kernel_regularizer": null, "bias_initializer": {"class_name": "Zeros", "config": {}}, "use_bias": true, "activity_regularizer": null, "kernel_size": [1, 1]}, "inbound_nodes": [[["hg1_l1_residual", 0, 0, {}]]], "name": "hg1_rf1_connect_conv_1x1_x1"}, {"class_name": "LeakyReLU", "config": {"dtype": "float32", "trainable": true, "name": "leaky_re_lu_89", "alpha": 0.10000000149011612}, "inbound_nodes": [[["hg1_rf2_connect_conv_conv_1x1_x1", 0, 0, {}]]], "name": "leaky_re_lu_89"}, {"class_name": "LeakyReLU", "config": {"dtype": "float32", "trainable": true, "name": "leaky_re_lu_92", "alpha": 0.10000000149011612}, "inbound_nodes": [[["hg1_rf1_connect_conv_1x1_x1", 0, 0, {}]]], "name": "leaky_re_lu_92"}, {"class_name": "BatchNormalization", "config": {"beta_constraint": null, "gamma_initializer": {"class_name": "Ones", "config": {}}, "moving_mean_initializer": {"class_name": "Zeros", "config": {}}, "name": "batch_normalization_87", "dtype": "float32", "trainable": true, "moving_variance_initializer": {"class_name": "Ones", "config": {}}, "beta_initializer": {"class_name": "Zeros", "config": {}}, "scale": true, "axis": -1, "epsilon": 0.001, "gamma_constraint": null, "gamma_regularizer": null, "beta_regularizer": null, "momentum": 0.99, "center": true}, "inbound_nodes": [[["leaky_re_lu_89", 0, 0, {}]]], "name": "batch_normalization_87"}, {"class_name": "BatchNormalization", "config": {"beta_constraint": null, "gamma_initializer": {"class_name": "Ones", "config": {}}, "moving_mean_initializer": {"class_name": "Zeros", "config": {}}, "name": "batch_normalization_90", "dtype": "float32", "trainable": true, "moving_variance_initializer": {"class_name": "Ones", "config": {}}, "beta_initializer": {"class_name": "Zeros", "config": {}}, "scale": true, "axis": -1, "epsilon": 0.001, "gamma_constraint": null, "gamma_regularizer": null, "beta_regularizer": null, "momentum": 0.99, "center": true}, "inbound_nodes": [[["leaky_re_lu_92", 0, 0, {}]]], "name": "batch_normalization_90"}, {"class_name": "Conv2D", "config": {"kernel_initializer": {"class_name": "VarianceScaling", "config": {"distribution": "uniform", "scale": 1.0, "seed": null, "mode": "fan_avg"}}, "name": "hg1_rf2_connect_conv_conv_3x3_x2", "kernel_constraint": null, "bias_regularizer": null, "bias_constraint": null, "dtype": "float32", "activation": "linear", "trainable": true, "data_format": "channels_last", "filters": 8, "padding": "same", "strides": [1, 1], "dilation_rate": [1, 1], "kernel_regularizer": null, "bias_initializer": {"class_name": "Zeros", "config": {}}, "use_bias": true, "activity_regularizer": null, "kernel_size": [3, 3]}, "inbound_nodes": [[["batch_normalization_87", 0, 0, {}]]], "name": "hg1_rf2_connect_conv_conv_3x3_x2"}, {"class_name": "Conv2D", "config": {"kernel_initializer": {"class_name": "VarianceScaling", "config": {"distribution": "uniform", "scale": 1.0, "seed": null, "mode": "fan_avg"}}, "name": "hg1_rf1_connect_conv_3x3_x2", "kernel_constraint": null, "bias_regularizer": null, "bias_constraint": null, "dtype": "float32", "activation": "linear", "trainable": true, "data_format": "channels_last", "filters": 8, "padding": "same", "strides": [1, 1], "dilation_rate": [1, 1], "kernel_regularizer": null, "bias_initializer": {"class_name": "Zeros", "config": {}}, "use_bias": true, "activity_regularizer": null, "kernel_size": [3, 3]}, "inbound_nodes": [[["batch_normalization_90", 0, 0, {}]]], "name": "hg1_rf1_connect_conv_3x3_x2"}, {"class_name": "LeakyReLU", "config": {"dtype": "float32", "trainable": true, "name": "leaky_re_lu_90", "alpha": 0.10000000149011612}, "inbound_nodes": [[["hg1_rf2_connect_conv_conv_3x3_x2", 0, 0, {}]]], "name": "leaky_re_lu_90"}, {"class_name": "LeakyReLU", "config": {"dtype": "float32", "trainable": true, "name": "leaky_re_lu_93", "alpha": 0.10000000149011612}, "inbound_nodes": [[["hg1_rf1_connect_conv_3x3_x2", 0, 0, {}]]], "name": "leaky_re_lu_93"}, {"class_name": "BatchNormalization", "config": {"beta_constraint": null, "gamma_initializer": {"class_name": "Ones", "config": {}}, "moving_mean_initializer": {"class_name": "Zeros", "config": {}}, "name": "batch_normalization_88", "dtype": "float32", "trainable": true, "moving_variance_initializer": {"class_name": "Ones", "config": {}}, "beta_initializer": {"class_name": "Zeros", "config": {}}, "scale": true, "axis": -1, "epsilon": 0.001, "gamma_constraint": null, "gamma_regularizer": null, "beta_regularizer": null, "momentum": 0.99, "center": true}, "inbound_nodes": [[["leaky_re_lu_90", 0, 0, {}]]], "name": "batch_normalization_88"}, {"class_name": "BatchNormalization", "config": {"beta_constraint": null, "gamma_initializer": {"class_name": "Ones", "config": {}}, "moving_mean_initializer": {"class_name": "Zeros", "config": {}}, "name": "batch_normalization_91", "dtype": "float32", "trainable": true, "moving_variance_initializer": {"class_name": "Ones", "config": {}}, "beta_initializer": {"class_name": "Zeros", "config": {}}, "scale": true, "axis": -1, "epsilon": 0.001, "gamma_constraint": null, "gamma_regularizer": null, "beta_regularizer": null, "momentum": 0.99, "center": true}, "inbound_nodes": [[["leaky_re_lu_93", 0, 0, {}]]], "name": "batch_normalization_91"}, {"class_name": "Conv2D", "config": {"kernel_initializer": {"class_name": "VarianceScaling", "config": {"distribution": "uniform", "scale": 1.0, "seed": null, "mode": "fan_avg"}}, "name": "hg1_rf2_connect_conv_conv_1x1_x3", "kernel_constraint": null, "bias_regularizer": null, "bias_constraint": null, "dtype": "float32", "activation": "linear", "trainable": true, "data_format": "channels_last", "filters": 16, "padding": "same", "strides": [1, 1], "dilation_rate": [1, 1], "kernel_regularizer": null, "bias_initializer": {"class_name": "Zeros", "config": {}}, "use_bias": true, "activity_regularizer": null, "kernel_size": [1, 1]}, "inbound_nodes": [[["batch_normalization_88", 0, 0, {}]]], "name": "hg1_rf2_connect_conv_conv_1x1_x3"}, {"class_name": "Conv2D", "config": {"kernel_initializer": {"class_name": "VarianceScaling", "config": {"distribution": "uniform", "scale": 1.0, "seed": null, "mode": "fan_avg"}}, "name": "hg1_rf1_connect_conv_1x1_x3", "kernel_constraint": null, "bias_regularizer": null, "bias_constraint": null, "dtype": "float32", "activation": "linear", "trainable": true, "data_format": "channels_last", "filters": 16, "padding": "same", "strides": [1, 1], "dilation_rate": [1, 1], "kernel_regularizer": null, "bias_initializer": {"class_name": "Zeros", "config": {}}, "use_bias": true, "activity_regularizer": null, "kernel_size": [1, 1]}, "inbound_nodes": [[["batch_normalization_91", 0, 0, {}]]], "name": "hg1_rf1_connect_conv_1x1_x3"}, {"class_name": "LeakyReLU", "config": {"dtype": "float32", "trainable": true, "name": "leaky_re_lu_91", "alpha": 0.10000000149011612}, "inbound_nodes": [[["hg1_rf2_connect_conv_conv_1x1_x3", 0, 0, {}]]], "name": "leaky_re_lu_91"}, {"class_name": "LeakyReLU", "config": {"dtype": "float32", "trainable": true, "name": "leaky_re_lu_94", "alpha": 0.10000000149011612}, "inbound_nodes": [[["hg1_rf1_connect_conv_1x1_x3", 0, 0, {}]]], "name": "leaky_re_lu_94"}, {"class_name": "BatchNormalization", "config": {"beta_constraint": null, "gamma_initializer": {"class_name": "Ones", "config": {}}, "moving_mean_initializer": {"class_name": "Zeros", "config": {}}, "name": "batch_normalization_89", "dtype": "float32", "trainable": true, "moving_variance_initializer": {"class_name": "Ones", "config": {}}, "beta_initializer": {"class_name": "Zeros", "config": {}}, "scale": true, "axis": -1, "epsilon": 0.001, "gamma_constraint": null, "gamma_regularizer": null, "beta_regularizer": null, "momentum": 0.99, "center": true}, "inbound_nodes": [[["leaky_re_lu_91", 0, 0, {}]]], "name": "batch_normalization_89"}, {"class_name": "BatchNormalization", "config": {"beta_constraint": null, "gamma_initializer": {"class_name": "Ones", "config": {}}, "moving_mean_initializer": {"class_name": "Zeros", "config": {}}, "name": "batch_normalization_92", "dtype": "float32", "trainable": true, "moving_variance_initializer": {"class_name": "Ones", "config": {}}, "beta_initializer": {"class_name": "Zeros", "config": {}}, "scale": true, "axis": -1, "epsilon": 0.001, "gamma_constraint": null, "gamma_regularizer": null, "beta_regularizer": null, "momentum": 0.99, "center": true}, "inbound_nodes": [[["leaky_re_lu_94", 0, 0, {}]]], "name": "batch_normalization_92"}, {"class_name": "Add", "config": {"dtype": "float32", "trainable": true, "name": "hg1_rf2_connect_conv_residual"}, "inbound_nodes": [[["add_8", 0, 0, {}], ["batch_normalization_89", 0, 0, {}]]], "name": "hg1_rf2_connect_conv_residual"}, {"class_name": "Add", "config": {"dtype": "float32", "trainable": true, "name": "hg1_rf1_connect_residual"}, "inbound_nodes": [[["hg1_l1_residual", 0, 0, {}], ["batch_normalization_92", 0, 0, {}]]], "name": "hg1_rf1_connect_residual"}, {"class_name": "UpSampling2D", "config": {"name": "up_sampling2d_6", "dtype": "float32", "trainable": true, "data_format": "channels_last", "size": [2, 2], "interpolation": "nearest"}, "inbound_nodes": [[["hg1_rf2_connect_conv_residual", 0, 0, {}]]], "name": "up_sampling2d_6"}, {"class_name": "Add", "config": {"dtype": "float32", "trainable": true, "name": "add_9"}, "inbound_nodes": [[["hg1_rf1_connect_residual", 0, 0, {}], ["up_sampling2d_6", 0, 0, {}]]], "name": "add_9"}, {"class_name": "Conv2D", "config": {"kernel_initializer": {"class_name": "VarianceScaling", "config": {"distribution": "uniform", "scale": 1.0, "seed": null, "mode": "fan_avg"}}, "name": "hg1_rf1_connect_conv_conv_1x1_x1", "kernel_constraint": null, "bias_regularizer": null, "bias_constraint": null, "dtype": "float32", "activation": "linear", "trainable": true, "data_format": "channels_last", "filters": 8, "padding": "same", "strides": [1, 1], "dilation_rate": [1, 1], "kernel_regularizer": null, "bias_initializer": {"class_name": "Zeros", "config": {}}, "use_bias": true, "activity_regularizer": null, "kernel_size": [1, 1]}, "inbound_nodes": [[["add_9", 0, 0, {}]]], "name": "hg1_rf1_connect_conv_conv_1x1_x1"}, {"class_name": "LeakyReLU", "config": {"dtype": "float32", "trainable": true, "name": "leaky_re_lu_95", "alpha": 0.10000000149011612}, "inbound_nodes": [[["hg1_rf1_connect_conv_conv_1x1_x1", 0, 0, {}]]], "name": "leaky_re_lu_95"}, {"class_name": "BatchNormalization", "config": {"beta_constraint": null, "gamma_initializer": {"class_name": "Ones", "config": {}}, "moving_mean_initializer": {"class_name": "Zeros", "config": {}}, "name": "batch_normalization_93", "dtype": "float32", "trainable": true, "moving_variance_initializer": {"class_name": "Ones", "config": {}}, "beta_initializer": {"class_name": "Zeros", "config": {}}, "scale": true, "axis": -1, "epsilon": 0.001, "gamma_constraint": null, "gamma_regularizer": null, "beta_regularizer": null, "momentum": 0.99, "center": true}, "inbound_nodes": [[["leaky_re_lu_95", 0, 0, {}]]], "name": "batch_normalization_93"}, {"class_name": "Conv2D", "config": {"kernel_initializer": {"class_name": "VarianceScaling", "config": {"distribution": "uniform", "scale": 1.0, "seed": null, "mode": "fan_avg"}}, "name": "hg1_rf1_connect_conv_conv_3x3_x2", "kernel_constraint": null, "bias_regularizer": null, "bias_constraint": null, "dtype": "float32", "activation": "linear", "trainable": true, "data_format": "channels_last", "filters": 8, "padding": "same", "strides": [1, 1], "dilation_rate": [1, 1], "kernel_regularizer": null, "bias_initializer": {"class_name": "Zeros", "config": {}}, "use_bias": true, "activity_regularizer": null, "kernel_size": [3, 3]}, "inbound_nodes": [[["batch_normalization_93", 0, 0, {}]]], "name": "hg1_rf1_connect_conv_conv_3x3_x2"}, {"class_name": "LeakyReLU", "config": {"dtype": "float32", "trainable": true, "name": "leaky_re_lu_96", "alpha": 0.10000000149011612}, "inbound_nodes": [[["hg1_rf1_connect_conv_conv_3x3_x2", 0, 0, {}]]], "name": "leaky_re_lu_96"}, {"class_name": "BatchNormalization", "config": {"beta_constraint": null, "gamma_initializer": {"class_name": "Ones", "config": {}}, "moving_mean_initializer": {"class_name": "Zeros", "config": {}}, "name": "batch_normalization_94", "dtype": "float32", "trainable": true, "moving_variance_initializer": {"class_name": "Ones", "config": {}}, "beta_initializer": {"class_name": "Zeros", "config": {}}, "scale": true, "axis": -1, "epsilon": 0.001, "gamma_constraint": null, "gamma_regularizer": null, "beta_regularizer": null, "momentum": 0.99, "center": true}, "inbound_nodes": [[["leaky_re_lu_96", 0, 0, {}]]], "name": "batch_normalization_94"}, {"class_name": "Conv2D", "config": {"kernel_initializer": {"class_name": "VarianceScaling", "config": {"distribution": "uniform", "scale": 1.0, "seed": null, "mode": "fan_avg"}}, "name": "hg1_rf1_connect_conv_conv_1x1_x3", "kernel_constraint": null, "bias_regularizer": null, "bias_constraint": null, "dtype": "float32", "activation": "linear", "trainable": true, "data_format": "channels_last", "filters": 16, "padding": "same", "strides": [1, 1], "dilation_rate": [1, 1], "kernel_regularizer": null, "bias_initializer": {"class_name": "Zeros", "config": {}}, "use_bias": true, "activity_regularizer": null, "kernel_size": [1, 1]}, "inbound_nodes": [[["batch_normalization_94", 0, 0, {}]]], "name": "hg1_rf1_connect_conv_conv_1x1_x3"}, {"class_name": "LeakyReLU", "config": {"dtype": "float32", "trainable": true, "name": "leaky_re_lu_97", "alpha": 0.10000000149011612}, "inbound_nodes": [[["hg1_rf1_connect_conv_conv_1x1_x3", 0, 0, {}]]], "name": "leaky_re_lu_97"}, {"class_name": "BatchNormalization", "config": {"beta_constraint": null, "gamma_initializer": {"class_name": "Ones", "config": {}}, "moving_mean_initializer": {"class_name": "Zeros", "config": {}}, "name": "batch_normalization_95", "dtype": "float32", "trainable": true, "moving_variance_initializer": {"class_name": "Ones", "config": {}}, "beta_initializer": {"class_name": "Zeros", "config": {}}, "scale": true, "axis": -1, "epsilon": 0.001, "gamma_constraint": null, "gamma_regularizer": null, "beta_regularizer": null, "momentum": 0.99, "center": true}, "inbound_nodes": [[["leaky_re_lu_97", 0, 0, {}]]], "name": "batch_normalization_95"}, {"class_name": "Add", "config": {"dtype": "float32", "trainable": true, "name": "hg1_rf1_connect_conv_residual"}, "inbound_nodes": [[["add_9", 0, 0, {}], ["batch_normalization_95", 0, 0, {}]]], "name": "hg1_rf1_connect_conv_residual"}, {"class_name": "Conv2D", "config": {"kernel_initializer": {"class_name": "VarianceScaling", "config": {"distribution": "uniform", "scale": 1.0, "seed": null, "mode": "fan_avg"}}, "name": "1_conv_1x1_x1", "kernel_constraint": null, "bias_regularizer": null, "bias_constraint": null, "dtype": "float32", "activation": "linear", "trainable": true, "data_format": "channels_last", "filters": 16, "padding": "same", "strides": [1, 1], "dilation_rate": [1, 1], "kernel_regularizer": null, "bias_initializer": {"class_name": "Zeros", "config": {}}, "use_bias": true, "activity_regularizer": null, "kernel_size": [1, 1]}, "inbound_nodes": [[["hg1_rf1_connect_conv_residual", 0, 0, {}]]], "name": "1_conv_1x1_x1"}, {"class_name": "LeakyReLU", "config": {"dtype": "float32", "trainable": true, "name": "leaky_re_lu_98", "alpha": 0.10000000149011612}, "inbound_nodes": [[["1_conv_1x1_x1", 0, 0, {}]]], "name": "leaky_re_lu_98"}, {"class_name": "BatchNormalization", "config": {"beta_constraint": null, "gamma_initializer": {"class_name": "Ones", "config": {}}, "moving_mean_initializer": {"class_name": "Zeros", "config": {}}, "name": "batch_normalization_96", "dtype": "float32", "trainable": true, "moving_variance_initializer": {"class_name": "Ones", "config": {}}, "beta_initializer": {"class_name": "Zeros", "config": {}}, "scale": true, "axis": -1, "epsilon": 0.001, "gamma_constraint": null, "gamma_regularizer": null, "beta_regularizer": null, "momentum": 0.99, "center": true}, "inbound_nodes": [[["leaky_re_lu_98", 0, 0, {}]]], "name": "batch_normalization_96"}, {"class_name": "Conv2D", "config": {"kernel_initializer": {"class_name": "VarianceScaling", "config": {"distribution": "uniform", "scale": 1.0, "seed": null, "mode": "fan_avg"}}, "name": "1_conv_1x1_parts", "kernel_constraint": null, "bias_regularizer": null, "bias_constraint": null, "dtype": "float32", "activation": "linear", "trainable": true, "data_format": "channels_last", "filters": 2, "padding": "same", "strides": [1, 1], "dilation_rate": [1, 1], "kernel_regularizer": null, "bias_initializer": {"class_name": "Zeros", "config": {}}, "use_bias": true, "activity_regularizer": null, "kernel_size": [1, 1]}, "inbound_nodes": [[["batch_normalization_96", 0, 0, {}]]], "name": "1_conv_1x1_parts"}], "input_layers": [["input_1", 0, 0]], "output_layers": [["0_conv_1x1_parts", 0, 0], ["1_conv_1x1_parts", 0, 0]], "name": "model_1"}, "backend": "tensorflow"}